best_fire_model.pth (torch, 98557 bytes, 7 tensors)

features.0.weight f4 [16, 3, 3, 3]
00000000: b26a e8bc ebdd 5a3e 3892 1d3e 084a fc3d
00000010: 13ce 9a3d e055 db3d 4182 f03d a674 ed3d
00000020: 7126 e73d fb82 263d 2fd2 ddbd d82f 8b3d
00000030: 614c 0abe ff58 1fbe b07a 32bd 22b7 e33d
00000040: 99ef 4fbe b9ad adbd 79f1 403d 2658 c4bd
00000050: 3b64 813d 27b9 013d 95b0 3c3e 5b4f 14be
00000060: 5a92 c8bc fe8c 743d 9242 4a3d 67a4 003e
00000070: 0155 843d 9d2a 4b3e 571f 21bd 1e7a e0bd
00000080: 5f17 303e b920 a53d c077 c63d 8c0d 7dbd
00000090: 98a9 10be 14f5 09be 6c05 f8bd 5b98 96bd
000000a0: c7d3 26be bab9 62bd 817a d0bd 412e 0bbe
000000b0: 66f0 1d3d 3e5b c93d 147a b23d e2e2 16be
000000c0: feaf 663d 6d7f cb3d d711 c3bd d3ed f1bd
000000d0: 3ad1 fabd 33d7 b83c c656 613d 2b57 a03d
000000e0: a79a f13c e2d7 b5bd a045 14be 9cb2 523e
000000f0: 5203 943d 9167 81bd cfca f6bd 3565 0fbe
00000100: 86b4 54be d841 46be 4dbd a0bc 492b c1bd
00000110: adef 07be 7ca8 c3bc 49a5 5bbe fd78 163d
00000120: 8224 2dbe e5a6 013d d577 15be 37e5 7dbd
00000130: cc73 35bc 9845 79bc e74d 1ebe 73e2 093e
00000140: 6deb f0bd 2375 293d f057 30be 4b5a e2bc
00000150: 0bd4 c1bd 6852 b3bd 1e7d 063e bf80 a63b
00000160: 00a1 8f3d dd8b 4dbe a175 5e3e 367b 5c3e
00000170: 62d2 a8bd c768 81bd 7434 193e d778 c73d
00000180: d97d 4d3e f3d6 843d f99f 1a3e 9394 103d
00000190: a0db dbbd b5ee aebd 109e 93bd cc1f e0bc
000001a0: 1f1d e6bd 5025 83bc c6cb b13d e8e5 bb3d
000001b0: 42b9 2ebd c65b f23d 8697 ab3d ca97 e03b
000001c0: 96c8 0e3e 4480 00bd 3cf2 f5bd a352 f8bd
000001d0: ccf1 38be 5948 d93d 478f 2a3e 594e e33d
000001e0: 7db8 aabd 9123 cdbd 5d21 bbbd 5a81 a8bb
000001f0: 9192 41be 4184 56be f89a 733e e67b 07bd
00000200: 8282 4e3e ddb7 0c3e 3fa6 c1bd 5b8a 9ebd
00000210: 4d16 213e dd24 51bd 4a41 a5bb 70d4 cf3d
00000220: 168c 383e 1552 30be f378 5c3e 9035 913c
00000230: 9a40 70bd 077f 08be 4515 923d a532 37be
00000240: 7304 8fbd 0489 1dbc f1e8 6dbd 1dd9 583d
00000250: 5e40 e8bd 3145 1cbe 7c2f f93d 1293 593e
00000260: 7762 363e 90b8 df3d 7f26 03be 67ad 46be
00000270: 73dd 1cbe aab2 a23c ccea c0bc 8092 123e
00000280: 31ba 463e 5018 69be dfde 30bc 9f03 9bbd
00000290: fdf4 2fbe fe14 253e b2d0 203e 39a4 543c
000002a0: d9ad b4bd e1a9 07be 56af fb3c 9ef7 2c3e
000002b0: 10a3 4abd 29e5 fabc 3335 a83d 138f 183e
000002c0: 0a5a 133d 0126 e5bc ed90 d13d 102e 453e
000002d0: e024 a3bd 884b dfbd 697f 163d f95b 01be
000002e0: 2edb 373a c76a e7bd c0bb 47be 32bf 0fbe
000002f0: d864 6e3b 7e6b 83bd af5c d63d ec1d ad3d
00000300: 502d df3d 7e38 bf3c 177a 8f3b a768 f13d
00000310: 430c 3b3d 3acc d8bc 36cf 9e3d 643c e33d
00000320: 8e4b 9bbb 0e01 2ebe 2ec8 d23d 36a5 71bd
00000330: 00bb 67be d848 07be b349 103c a863 dcbd
00000340: 7264 45be 3c3e 4bbe 63bf 8bbd 8789 ec3a
00000350: e233 0abd b4ec 443d 535e 1b3b 23bd 053e
00000360: a8e5 663c 394b ddbc 8757 5ebd 5600 163e
00000370: 6fc5 eb3c ef2b 613b bc93 aebb b669 bbbd
00000380: 7a8d 63bd 989c c73d 2ae0 163e a61d 02be
00000390: dfea dd3c f67f 4c3e f682 283d 547f e0bd
000003a0: b1b1 ad3d ecdb ca3d 967b 0c3e d622 3cbe
000003b0: 19ef bdbd 069f 55bd 50db 4abc 30e4 e6bd
000003c0: 964e 8d3d a426 09be 8d69 263e 76f0 d63d
000003d0: 90c2 3bbe df44 683c 4080 883d b792 21bd
000003e0: a504 7f3d c8df 2e3c 5bda e6bb c82a 56be
000003f0: ae7e 8fbd dcd9 043e 5d28 403e d2c2 3f3e
-0.028371189 0.21373717 0.1538781 0.12318808 0.07558837 0.10709739 0.11743594 0.115945145
0.11286629 0.040652256 -0.10831105 0.06796235 -0.13505699 -0.15561293 -0.043574035 0.11118914
-0.20306243 -0.084804006 0.047105286 -0.095871255 0.063179456 0.031670716 0.18426736 -0.14483397
-0.024483848 0.059704773 0.049379893 0.12562715 0.06461526 0.19840474 -0.03933653 -0.10960792
0.17196415 0.08062882 0.09690809 -0.061780497 -0.14127195 -0.13472396 -0.12110409 -0.07353278
-0.16291724 -0.055352904 -0.10179616 -0.13591863 0.03855934 0.09831856 0.08714691 -0.14734986
0.056320183 0.09936414 -0.09524887 -0.118129395 -0.12246938 0.022563552 0.055014394 0.07829126
0.02949269 -0.08879067 -0.14479685 0.20575947 0.07227196 -0.06318582 -0.120504014 -0.14003451
-0.20771989 -0.19361055 -0.019621516 -0.09432084 -0.13275023 -0.02388405 -0.2144977 0.036736477
-0.16908458 0.031653304 -0.14596494 -0.061986174 -0.011074971 -0.015214346 -0.15459405 0.1346529
-0.11763654 0.041371476 -0.17221045 -0.027630946 -0.09464272 -0.08755952 0.13133666 0.0050812657
0.0701313 -0.20072885 0.2172456 0.21531376 -0.08243252 -0.06318813 0.14961416 0.09739845
0.20067538 0.06486311 0.15100087 0.03529794 -0.107352495 -0.085416235 -0.072078824 -0.027358912
-0.11236023 -0.016009003 0.08681445 0.091747105 -0.042657144 0.11833911 0.0837851 0.006854032
0.13943705 -0.031372324 -0.12009093 -0.12125137 -0.18060988 0.10609502 0.16656218 0.11098928
-0.083359696 -0.100165494 -0.09137223 -0.005142373 -0.18903567 -0.20948888 0.23789585 -0.033077143
0.20166972 0.13742013 -0.09455537 -0.07741233 0.15731163 -0.051060546 -0.0050431835 0.10147941
0.18022189 -0.17218812 0.21530513 0.017725736 -0.05865536 -0.13329707 0.07132963 -0.17890413
-0.069832705 -0.009615187 -0.05808348 0.05294143 -0.11340402 -0.1526077 0.1216726 0.21247509
0.17810999 0.109238744 -0.12807654 -0.19402085 -0.15318851 0.019860584 -0.02354946 0.14313698
0.19406964 -0.2276318 -0.010795324 -0.0756905 -0.171833 0.16121289 0.15704611 0.012978607
-0.08822221 -0.13248397 0.030723255 0.16891333 -0.049471915 -0.03062685 0.08213272 0.14898328
0.03597454 -0.027972223 0.102327205 0.19255853 -0.07966018 -0.10903078 0.0367426 -0.12632741
0.00070135563 -0.11299663 -0.19505215 -0.14037779 0.0036376026 -0.06416987 0.10466897 0.08452973
0.108973145 0.023342367 0.004378568 0.11787539 0.04566599 -0.02646457 0.07754366 0.11095503
-0.0047392314 -0.1699259 0.102920875 -0.058995448 -0.22629929 -0.13211381 0.008806634 -0.107611954
-0.19276598 -0.1984796 -0.068236135 0.0018046357 -0.033740886 0.0480773 0.0023707345 0.13060431
0.01409284 -0.027013408 -0.05428269 0.14648566 0.028780667 0.0034358462 -0.00532767 -0.09151022
-0.055554844 0.09746665 0.1473395 -0.12706622 0.027089534 0.19970688 0.04114052 -0.10961786
0.084811576 0.09905228 0.1371902 -0.18372664 -0.0927412 -0.05215361 -0.01238139 -0.11273992
0.06899755 -0.13393646 0.16251202 0.10495083 -0.18335938 0.014176576 0.06665087 -0.03944656
0.06226029 0.010673471 -0.007045073 -0.20914757 -0.07006584 0.12973732 0.18765397 0.18726662

features.0.bias f4 [16]
00000000: fed2 15bd a7d3 e53d da7a fd3d 83a9 c53d
00000010: c6ba 97bd b35c 95bc cbe7 133d 946d 253e
00000020: 0bfa 033e e6f1 d0bd b334 c33d 899c 223e
00000030: 2b45 3f3a 07a7 013e 704d 183e 4c21 e63d
-0.03657817 0.1122201 0.12376948 0.096514724 -0.07408671 -0.018232679 0.036109727 0.16155082
0.12888353 -0.102023885 0.09531536 0.15880026 0.00072963786 0.12661372 0.1487329 0.112368196

features.3.weight f4 [32, 16, 3, 3]
00000000: f315 54bd 14fd 973d 1ae4 8ebd e3d9 9ebd
00000010: b2e6 a3bd 6d22 d33c e2f5 ea3c a6a4 883c
00000020: 9516 5f3d bc24 b2bd a385 e23b 572d 9dbd
00000030: 279d b0bd 2af1 65bd b8ab d23c 5930 0abb
00000040: 66c0 a0bd 93a9 86bd 3f23 8abd b03f dabc
00000050: 5261 dc3c aaab 3b3d 5746 2cbd 07a6 5f3d
00000060: f766 18bd 8f46 a1bd 55b0 0e3d dae0 9ebd
00000070: 3347 f8bc 605f 11bc 6c01 d1bc ee27 e83b
00000080: 723e 763d 9777 763d dce4 acbd 7aa5 c5bb
00000090: 57eb a3bd 05ae 28bd 8527 5fbd 1e54 223d
000000a0: 2309 eabc 8d75 5fbd 47e8 6b3d 88a8 e6bc
000000b0: be1c 4d3b 7bef a33d 147c 8d3d 704f 1ebd
000000c0: 5e6f d13c 96a7 eb3b 169e d23b 7c53 7bbd
000000d0: 874e 253d 1809 3a3d 3af5 00bd b5a5 7b3c
000000e0: fa23 0939 52fc 6dbd c1d5 01bd e551 b8bc
000000f0: 8025 98bd 4eb6 803d 8d19 99bd e7ab 62bb
00000100: f2fc a4bb 5280 6e3d c289 9b3d 3912 713d
00000110: a9e6 103d e1dc 503d 6160 8e3d 34f9 033d
00000120: dda3 afbd 895c 0d3c e449 f2bc b346 a7bc
00000130: 3257 86bd a6b6 ddbc a8c6 38bd ab46 d139
00000140: 2963 f63c 2b66 89bd e3c5 d63c aa1b 92ba
00000150: c976 9c3d 3f09 9139 cd83 20bd babb 783d
00000160: bca4 c03c fac1 1e3d ec9e 0abd bad6 4d3d
00000170: 2809 35bc 73aa 89bd 72ef 093d d587 523d
00000180: 8900 843d 970d 503c 1a0d 1dbd 63f8 a3bd
00000190: c292 143c f463 60bd 2857 6a3d f126 a4bc
000001a0: c81e 753d 0e7e 4cbd 1c37 bd3b 3bf3 893d
000001b0: 034e db3c 3137 923c 8864 d23c 87a4 18bd
000001c0: 9b23 a0bd 404c 9bbd 5549 ad3c e71e c2bc
000001d0: 87e6 68bd 01f9 9c3d b2ab 8d3d 74b9 97bd
000001e0: 28b2 623c 24ec 59bb e808 233d a577 a8bc
000001f0: 60f7 aebd c979 043d 7eed 19bd b512 963d
00000200: 1505 d2bc 09b3 a5bc 2e2b 423d 6899 563d
00000210: 4e9d 513d fc43 7ebd 5037 b0bd f873 7bbd
00000220: 7e00 b73c 2ee5 9a3d c17c 32bd c8e8 2fbd
00000230: 41ce 61bd 10be 833d af93 a5bc f0d4 243c
00000240: 0b40 33ba 6cf2 86bd 7bbf fb3c cbc3 593d
00000250: 8bb8 c1bc 5b0a 5d3d 5980 2fbc 27b3 24bd
00000260: 30b8 633d 40cf 6ebc 6376 42bd 2649 40bd
00000270: db0a 66bd 13b4 5a3d a6bf d6bc 50ba d23c
00000280: 2b36 78bd 907d 9dbc f85f 24bd cab3 93bd
00000290: ab4a d8b9 8ec5 7c3d 3024 e0bc 0336 65bd
000002a0: f0a0 1c3d 7ed8 443d 5bc4 64bd 79b1 ce3c
000002b0: a863 dd3b 70d2 7a3d 72ce 95bd 0b2a 1abd
000002c0: c602 a83d 718f a9bc c060 613d f809 82bd
000002d0: 7884 873d c891 75bd 8283 a93d 407f 5abc
000002e0: 20ca 643c 6e3f 82bd 823e 61bc 5080 7fbd
000002f0: 0047 76bd 9086 5a3d ed1a ea3c 53e1 21bd
00000300: 25f5 d5bb 0aa5 553b 20ed a93c 43b5 95bd
00000310: 9bec 323d 8b73 b23c 5540 913d 1bb8 943d
00000320: 0048 583a 2d07 50bd 314f 8abd 80ca 0a3b
00000330: 66b9 753d 530d 3a3d 4bf9 503d e100 f13b
00000340: 83e1 34bd 9bf5 873c 2b4f 8dbd 4817 693d
00000350: de26 503d c6df 19bd 2140 453d ce22 393d
00000360: bbc0 32bd 7289 ebbb cb95 81bc 0602 40bc
00000370: ef45 5e3d 2b74 8cbb 10db 2f3d b642 8bbd
00000380: eb85 19bd 5b11 103d 10ba adbd e079 93bc
00000390: 5864 08bc bd27 6fbd 364c 4e3c 1b84 2ebc
000003a0: 4e34 5f3d 8b4b 3b3c 4027 74bc 0484 7a3d
000003b0: 5b35 e03c 3369 903d d200 953d 4bb8 10bc
000003c0: 5633 a13d adca 0bbd 1675 a2bc 5fec 963d
000003d0: ee69 54bd be6c 98bd 12a2 253d c085 8ebc
000003e0: b053 833c 6799 0bbd 3ef2 3bbd 4080 34bc
000003f0: 646b 643d a4a9 973c 433c 28bd 7e5c 83bd
-0.051778745 0.07421318 -0.06977101 -0.07756402 -0.08002986 0.025773251 0.0286817 0.016680073
0.054464895 -0.08698413 0.0069129034 -0.076746635 -0.086237244 -0.056138195 0.025716648 -0.0021085946
-0.07849197 -0.065753125 -0.06745004 -0.026641697 0.026901875 0.04581801 -0.04205927 0.054601695
-0.03720757 -0.07874786 0.034836132 -0.07757731 -0.030307388 -0.008872837 -0.025513373 0.007084838
0.060118146 0.060172644 -0.08442089 -0.0060316892 -0.08003872 -0.041181583 -0.054481048 0.039631
-0.02856881 -0.054555465 0.057594564 -0.028156534 0.003129765 0.08004662 0.06908432 -0.038649976
0.0255658 0.0071916087 0.0064275367 -0.061358914 0.040358093 0.04541883 -0.031483866 0.015359332
0.0001307874 -0.05810196 -0.031697992 -0.022499988 -0.074290276 0.06284772 -0.074755765 -0.0034587325
-0.0050350362 0.058227845 0.075946346 0.05885527 0.035376225 0.050991897 0.069519766 0.03222008
-0.08576176 0.008628019 -0.02957625 -0.020419454 -0.065596 -0.027064633 -0.04511133 0.00039916238
0.03007658 -0.0670894 0.026217407 -0.001114716 0.07639844 0.00027663444 -0.039188195 0.060725905
0.023516051 0.03875921 -0.033842966 0.050253607 -0.011049546 -0.06721964 0.03367562 0.05139907
0.064454146 0.012698553 -0.038342573 -0.080063604 0.009068193 -0.054782823 0.057212025 -0.0200381
0.05984381 -0.049924903 0.005774392 0.06735846 0.026770597 0.017848583 0.025682703 -0.03726628
-0.07819291 -0.07582903 0.021153131 -0.023696376 -0.056860473 0.07664681 0.06917514 -0.07408419
0.013836421 -0.0033252323 0.039803416 -0.020564863 -0.08543277 0.032342706 -0.037580006 0.07327787
-0.025637189 -0.020226972 0.04740446 0.052392393 0.051175408 -0.062076554 -0.086043 -0.061389893
0.022339102 0.07563244 -0.043576006 -0.042946607 -0.05512834 0.06432736 -0.020212023 0.010060534
-0.0006837851 -0.06589207 0.030730953 0.05316524 -0.023647567 0.053964954 -0.010711753 -0.040209915
0.055595577 -0.014575779 -0.047476184 -0.04694476 -0.056162696 0.05339439 -0.026214432 0.025723606
-0.060598534 -0.019224912 -0.040130585 -0.072120264 -0.00041254362 0.06171184 -0.027361006 -0.055959713
0.03823942 0.048058026 -0.05585132 0.02523111 0.0067562647 0.061235845 -0.07314767 -0.03763775
0.08203654 -0.020698281 0.05502391 -0.06349558 0.06617063 -0.05995348 0.08277036 -0.013336003
0.013964206 -0.063597545 -0.013747813 -0.062378228 -0.060126305 0.053350985 0.028577292 -0.039521527
-0.0065294676 0.0032599592 0.020742953 -0.073099636 0.043682676 0.02178361 0.070923485 0.07261678
0.0008250475 -0.050788093 -0.06753386 0.0021177828 0.059991263 0.045422863 0.051018994 0.007354841
-0.044160377 0.016596606 -0.06899866 0.05690697 0.050818317 -0.037566923 0.04815686 0.045199208
-0.043640833 -0.0071880156 -0.015818497 -0.011719232 0.054265913 -0.0042863092 0.042933524 -0.067998335
-0.03748123 0.0351728 -0.08482754 -0.01800245 -0.008324705 -0.058387507 0.012591412 -0.010651614
0.05449324 0.011431585 -0.014901936 0.061161056 0.027369192 0.07051315 0.07275547 -0.008833001
0.0787112 -0.034128834 -0.019831222 0.07369303 -0.051858835 -0.07442616 0.040437765 -0.017397761
0.016031116 -0.034081843 -0.045885317 -0.011016905 0.05576648 0.018513508 -0.041073095 -0.06414126

features.3.bias f4 [32]
00000000: a784 a4bd 7e18 9abd dfad 973d 20e0 383d
00000010: 29fe 51bc ac08 b9bd 10fa 05bc 86c0 163d
00000020: 0ddf 133d 2931 2ebd dfa1 7a3c df13 cf3c
00000030: 7a43 8abd 993b c2bb 57c2 6b3c 5268 99bc
00000040: 5846 693d a616 eb3d 6d59 8b3d 7a8c 8a3d
00000050: ba94 c5bc 5681 c33d 944f 343d 4643 13bd
00000060: adf2 433d d79c 263d 8e1d aabb 2ca2 523c
00000070: 7ac3 6cbd 6ef0 3b3c 7f4c 52bc 8705 f3bc
-0.08033114 -0.07524203 0.0740621 0.045135617 -0.012816944 -0.09034857 -0.008177295 0.0368047
0.03610139 -0.04252735 0.015297382 0.02527803 -0.067511514 -0.0059275148 0.014389596 -0.018726502
0.05695185 0.11478929 0.06804166 0.06765075 -0.02411877 0.09546153 0.044021204 -0.03595283
0.047838856 0.040676918 -0.0051915115 0.012856048 -0.05780361 0.011470897 -0.012835621 -0.029665722

features.6.weight f4 [64, 32, 3, 3]
00000000: 4667 523d feca 01bd 5880 d7bc 007e 523c
00000010: e2ee 09ba 5dc0 3e3d 7ba6 403d 6ca9 4cbd
00000020: a093 6e3b 2c4a d7bc b352 41bc 1b0f 07bd
00000030: dd31 2cbc 2356 6ebd bda4 76ba 9836 c93c
00000040: 5d3a eb3c 9e6f 91bc 00bd 91bb 207f 343d
00000050: ac43 a93b 4ff5 dd3c 56a8 6e3c f636 763d
00000060: 3ede 413d 26fc 16bc 3e80 d03c 0a61 0abd
00000070: c0d4 80bc df0b ad3c 1d85 48bd 6528 8c3c
00000080: 6e6a ae3c 687c 2c3b 123c 99bd 065c 37bd
00000090: aeeb a53c 88ce 873d 62d8 853d 0851 4a3d
000000a0: 2edc 3fba cb4b 0c3d 9bcb 82bc 8c58 5fbc
000000b0: fb6c 273d 824b b8bb fa78 0cbc 05b1 e1bc
000000c0: 8040 49bd 79ab 28ba 221c e1bb 89c7 41bb
000000d0: 464e 46bd 898e ccbb 0256 043d 37fa 273d
000000e0: 7c50 a4bc 3c88 3d3d d10b abbc 4e55 26bd
000000f0: 01a3 33bb ff80 bc3c 4c68 843d cdef eebb
00000100: 34dc 423d 36b4 6a3a a2a8 2d3d 1af4 6a3d
00000110: e9ff 2ebc 3821 393b ccd4 3d3d d5a0 083d
00000120: 9ef5 cdbc 4232 a73d 5daa e1bb 6a73 793d
00000130: 45ee a53d 2da3 8bbc d16b 653d 5bd0 a93d
00000140: 19b4 193d 1581 87bd 832f 8bbd 0a0a 0dbd
00000150: 1919 5abd a2e7 bdbd 54b3 20bd 2cb4 e0bb
00000160: 5620 cb3b bc22 a6bd 31cf d5bc 1c60 5fbd
00000170: 649e 10bd cece 95bd c9e8 9d3c 46ac 753c
00000180: 8a88 b5bd e0ad a43a fdba 89bc 5fb4 553d
00000190: 5351 853d bd47 d53c 23ae 1b3d 631e d63b
000001a0: ecb7 eebb 2b52 003d 7473 4c3d af11 fb3a
000001b0: d9ec 57bd 0ef3 40bd 2227 58bd abf5 41bd
000001c0: a57c 8c3c 6e42 a43a a2cf 1f3d e902 32bd
000001d0: 025f 0abc cf24 bebd 151b 3d3c 6374 9ebd
000001e0: e89d b6bd b19b 92bd c202 b8bd a0b1 a03c
000001f0: cd76 b6bc 394b 78bd bca7 9d3c d203 0b3c
00000200: 5b4c b6bc e846 9239 6f08 4ebc c5fb 1dbd
00000210: c1ea 79bc 96dd 0ebd d80b fd3b afcd b13c
00000220: 66b6 b03d d40f f8bc cbe9 01bd d0a0 b43d
00000230: 0236 11bd be63 cebc 0c96 bd3d 05fd 0c3d
00000240: ce6e dd3c a138 443c 4f74 823d 1cdf 53b9
00000250: c787 b73c c4ea 74bc 15e9 b8bc 10bc 683d
00000260: aadf 1d3d c620 8a3d db9f 233d 42c4 4d3d
00000270: c534 cb3d f9f0 e73d bc4b ec3b aa7d c63d
00000280: a4cd cd3d 46fb 043e 0a2e 093d f527 b33d
00000290: 8d36 a03d 81f4 ae3d 7a36 0c3d a812 bd3c
000002a0: 8c41 0f3c 8ea4 d4bc 6cd2 daba c05d 183d
000002b0: 712f 473c 184c d73b 6b4d 903b a85f 1e3c
000002c0: 4ee0 8e3c 53a5 19bd 07a8 053c 8e72 1a3d
000002d0: c2d3 21bd 15b5 0b3d 2423 a1bc 6e2c cbbc
000002e0: d7bb 823c 23ae 20bc c6fd 90ba ec4c 493c
000002f0: 155f b63b a8fd b03d 0251 243d 1d4b 7c3d
00000300: a165 df3d 5feb ff3d 3ace a23c 1682 773c
00000310: 09d9 7f3d 36cd 773d 07ca 603d 8fae 34bb
00000320: 7d3a b8bc 2eec 4ebb bd15 67bc 233f 723d
00000330: 8aa7 343b 02c3 8d3b 74ce 113d de5d 10bc
00000340: 7050 3e3d 4f08 143c 17e0 88bc 0096 663d
00000350: 66c7 95bc c103 4c3b 2025 a6bb cc01 563d
00000360: 7603 b03d d810 10bc a19c 7b3d 9ee4 7f3d
00000370: 8b3d 9d3d 4c03 e83c 73e6 403d abcc 043d
00000380: 7cea 943c 5060 463c 0f1e 8b3d 4aaa a4bc
00000390: 8df2 88bb e291 febc 6d83 903d 09e1 853d
000003a0: d69d b83a 390e 973a d598 dd3c 4457 dc3c
000003b0: ea39 8fbc 0b8d 7e3c acba c6bc c009 f4bc
000003c0: acb6 4dbd 444c 043d 567f 103d 38ea b4bc
000003d0: 83ea e83c 6988 f03c 1695 11bc ca53 86bd
000003e0: 7b10 2bbd 35bf 323d 8dd0 f2bb 43a0 f0bb
000003f0: e4a9 59bd e68b 8fbd e019 9cbc 1757 a5ba
0.05136802 -0.03168773 -0.026306316 0.012847424 -0.00052617316 0.04657017 0.04703377 -0.04996626
0.003640391 -0.026280485 -0.011799502 -0.03297339 -0.010509935 -0.058187615 -0.0009408703 0.024562165
0.028714353 -0.017753419 -0.0044475794 0.04406655 0.005165538 0.027094511 0.014566502 0.06011101
0.047331087 -0.00921539 0.025451776 -0.03378395 -0.015726447 0.021123825 -0.04895507 0.017109105
0.021290984 0.002631927 -0.07482161 -0.044765495 0.020253982 0.066311896 0.06535412 0.049393684
-0.0007318881 0.03425197 -0.015966227 -0.013631951 0.040875416 -0.0056242356 -0.008573765 -0.02755023
-0.049133778 -0.0006434243 -0.006869809 -0.0029568395 -0.04841449 -0.0062425775 0.032308586 0.041010108
-0.02005791 0.0462725 -0.020879658 -0.040608697 -0.002741039 0.023010729 0.064652056 -0.00729177
0.047573283 0.0008953245 0.04239715 0.0573617 -0.010681131 0.002824856 0.046345517 0.033356506
-0.025141533 0.08163883 -0.006886764 0.060901083 0.08102087 -0.017045582 0.056011025 0.08291694
0.03752527 -0.06616417 -0.067961715 -0.034433402 -0.05324659 -0.09272696 -0.03923352 -0.0068574157
0.006198923 -0.08112094 -0.026099773 -0.054535016 -0.035307303 -0.073148355 0.01927604 0.0149946865
-0.088639334 0.0012564026 -0.016812796 0.05217397 0.06509652 0.026035184 0.038007867 0.006534384
-0.007285109 0.03132836 0.049914792 0.001915505 -0.05271611 -0.047106795 -0.052771695 -0.047353428
0.017149279 0.0012532005 0.039016373 -0.043459807 -0.008445503 -0.092843644 0.011542101 -0.07737043
-0.08916837 -0.07158602 -0.08984901 0.019615948 -0.022273446 -0.060618613 0.019245021 0.008484798
-0.022253206 0.0002790012 -0.012575253 -0.038570184 -0.015253724 -0.03487929 0.007722359 0.021704523
0.0862854 -0.030280985 -0.031717103 0.08819735 -0.035451896 -0.025194045 0.09257135 0.034420986
0.027030375 0.011976392 0.0636984 -0.00020205643 0.02240361 -0.014948551 -0.02257208 0.056819975
0.03854338 0.06744532 0.039947372 0.050235994 0.09922174 0.11325259 0.0072111767 0.09691937
0.100489885 0.12986478 0.033491172 0.087478556 0.07822905 0.08542729 0.03423164 0.023080185
0.008743655 -0.025957372 -0.0016694791 0.037198782 0.012157307 0.0065703504 0.00440376 0.009666361
0.017440941 -0.03751118 0.008157737 0.037706904 -0.03950859 0.03410824 -0.019670077 -0.02480146
0.01595871 -0.009807142 -0.0011061959 0.012286406 0.005565534 0.08642131 0.040116318 0.06159507
0.10908056 0.12496065 0.019873727 0.0151066985 0.06246284 0.06049844 0.05488017 -0.0027569865
-0.022488827 -0.003157388 -0.014104304 0.059142243 0.0027565681 0.0043262253 0.03559728 -0.008811442
0.04646343 0.009035184 -0.016708417 0.056295395 -0.018283557 0.0031130167 -0.0050703436 0.052247807
0.0859441 -0.008793078 0.06142867 0.062473886 0.07677754 0.028321885 0.047094774 0.03242175
0.018178217 0.012107924 0.067928426 -0.020100731 -0.004179305 -0.031075422 0.070563175 0.06537063
0.0014085125 0.0011524624 0.027050415 0.02689708 -0.01748367 0.015536557 -0.024258934 -0.029789805
-0.050223038 0.032299295 0.035277687 -0.02208434 0.028432136 0.02936192 -0.0088856425 -0.0655895
-0.041763764 0.04363938 -0.007410115 -0.0073433234 -0.053140536 -0.070091054 -0.019055307 -0.0012614456

features.6.bias f4 [64]
00000000: f35a 043d 405b 463d 0a91 15bc bfb6 aa3c
00000010: 9086 a33d 1ebc 383d 6ee1 773d 7417 18bc
00000020: c3a8 c3ba ccbe 7db9 0062 08bd facb 9c3d
00000030: 3d85 b53c 0081 263d 9200 233d 37f1 623d
00000040: adb8 383d 5bb7 83bd 525d a33d f0fa 033d
00000050: 033c 88bc 6efe cc3c 2432 123d 7e87 b13c
00000060: b8cf 813d 0346 8d3d 5736 893d 178f 1ebd
00000070: 1eca 4d3d 0f1c 773d 0bd4 743d e723 4bbc
00000080: 97d5 273d f791 52bd 7d91 9cbc f95a 18bd
00000090: 1940 283d 12c8 1eba c197 383d 455b e3bb
000000a0: c843 803d dd50 5a3d f809 0ebd 3967 f3bc
000000b0: 996d 81bd 1807 183d 7858 763d de09 8e3b
000000c0: b46b 09bd a360 f53c 9dd8 5c3b 98c1 993d
000000d0: 1d88 32bd f078 343d 941e e33a 2f6d 003d
000000e0: d70c 3c3d d3be 30bd e82e f23a dfc8 693d
000000f0: 55a3 8b3d 989a 19bd 0223 0c3d 63d0 203d
0.0323133 0.048426867 -0.009128818 0.020839093 0.0798465 0.045101278 0.06051772 -0.009282935
-0.0014927614 -0.00024199038 -0.033296585 0.07656093 0.02215826 0.040650368 0.039795466 0.05540582
0.045097996 -0.06431457 0.07976784 0.032221735 -0.016630178 0.025023665 0.03569235 0.021671053
0.06338447 0.06898119 0.06699818 -0.03871068 0.050241582 0.060329493 0.059772532 -0.0123986965
0.04097518 -0.051408734 -0.019112343 -0.037196133 0.041076753 -0.00060570345 0.0450666 -0.0069383704
0.06262928 0.053299773 -0.034677476 -0.029712306 -0.06319732 0.03711614 0.060142964 0.0043346724
-0.03354998 0.029953307 0.0033698448 0.07507628 -0.04358684 0.044060647 0.0017327839 0.031354126
0.045910683 -0.043150734 0.0018477114 0.05707633 0.068182625 -0.037500948 0.034213074 0.039261233

classifier.weight f4 [1, 64]
00000000: 7b84 d9bd c95f 3fbd 6cd6 243e 587c 9dbd
00000010: fdb1 0f3e eba0 4d3e d01b dbbd 550c d9bd
00000020: f87a 2a3e 8b60 b5bd 924f 523e c7f4 1f3e
00000030: d52a 61bd 7887 e83b 9350 10be e0df 03be
00000040: 7a9e cc3d 640b a5bd a973 283e c3f4 acbd
00000050: da23 0f3e 4ef1 8bbd 8478 6bbd 00de c1bd
00000060: 822f 1b3e 6d5a 033e 1167 1d3e ff24 583e
00000070: 3e33 543e c4a2 403e 6da5 e6bd abd2 293e
00000080: 419c 3e3e eb34 a1bc 1121 e3bc 3492 c8bd
00000090: 5a8a 2a3e 3b1c b6bd 7ac2 2a3e 202a 27be
000000a0: 9b98 453e cbf9 503e 94bb 523e 1bec b53c
000000b0: 498e c8bd e4ac 1b3e 19c2 1d3e a2d4 fbbc
000000c0: b87e d6bd 1d6f d4bd b18f 14be 2b6a 3f3e
000000d0: fb30 233c 8a10 bebd 46af 9cbd c605 153e
000000e0: d499 0f3e 826d adbb 5878 543e e1a2 4a3e
000000f0: b485 8abd 364a 27be 7607 4d3e 5797 31bd
-0.10620972 -0.046722207 0.1609742 -0.07689732 0.14032741 0.20080917 -0.10698664 -0.10598055
0.16648471 -0.08856305 0.20538166 0.15620719 -0.05497249 0.0070962273 -0.14093237 -0.1287837
0.099911645 -0.08058813 0.16450371 -0.08445122 0.1397852 -0.068331346 -0.05748798 -0.09466171
0.15154842 0.12827463 0.15371348 0.21107863 0.20722672 0.1881209 -0.11262021 0.1658427
0.18614294 -0.019678554 -0.027725728 -0.09793511 0.1665434 -0.08892103 0.1667575 -0.16324663
0.19296496 0.20407788 0.20579368 0.02220731 -0.09792764 0.15202671 0.15406074 -0.03074104
-0.104733884 -0.10372756 -0.14507939 0.18692844 0.009960408 -0.09280498 -0.07650618 0.14552984
0.14023525 -0.0052925954 0.20749032 0.19788696 -0.06763783 -0.16336903 0.20022377 -0.04335722
