best_fire_model_v1.pth (torch, 98621 bytes, 7 tensors)

features.0.weight f4 [16, 3, 3, 3]
-0.20630905 -0.11343345 0.04836161 -0.035228845 0.1542067 -0.03314022 0.060152557 -0.045519877
-0.016428748 -0.010988426 0.14193825 0.13718034 0.103272244 0.06256438 0.073446795 -0.030974006
0.1849056 0.17195797 -0.083451726 -0.13952908 -0.19056378 -0.11130417 0.0385631 0.016312677
0.005298258 0.0036259922 -0.031162009 0.10343975 0.025162967 -0.050141394 0.16239506 -0.048168987
-0.048317324 0.14377752 -0.10225129 -0.0363399 0.008355752 0.046729486 -0.112411074 0.06405671
0.06323296 0.05676863 -0.03129838 -0.18240221 0.05633389 0.004031117 0.071981706 -0.14345536
-0.07335203 0.119200274 0.1345512 -0.051539887 -0.045518875 0.046572477 -0.0920999 -0.114624344
-0.03546293 -0.10914884 0.038559332 -0.15153691 0.07767015 -0.11324058 -0.039977152 0.08922437
-0.04718593 0.25811788 -0.14171027 0.09978561 -0.1577051 0.1028523 -0.00391489 0.100749664
0.18264684 -0.114452146 0.14750935 -0.13001812 -0.0045608347 -0.107714504 -0.07738033 -0.12920497
0.10246183 0.046935648 -0.1859444 0.1673 -0.10834079 -0.18792251 0.15880065 0.14469472
0.106569044 0.22571029 -0.017977718 0.12063054 -0.048538152 0.10134955 -0.14037919 0.17775193
-0.118415736 0.23535013 0.20674093 -0.26428095 -0.2207688 -0.17992689 -0.08430436 -0.14472255
0.14261697 -0.1973927 -0.010099481 0.127761 0.27695778 0.10586099 -0.02235354 -0.045148328
0.15009123 0.17818959 -0.001165782 -0.046198446 0.01661245 0.04328699 -0.19788969 -0.12381691
-0.061742797 0.017980086 0.058684587 -0.058935456 0.08869067 -0.14632532 -0.23094201 -0.13488425
-0.12975733 -0.16449814 -0.026848286 -0.092227966 0.05817621 -0.13424587 -0.05749019 0.025312621
-0.011592341 -0.18255249 -0.013443943 -0.15468696 0.08735659 0.11221354 0.18057692 0.10126539
-0.16159062 -0.15416133 -0.16905695 0.03378315 0.13630983 0.19479534 0.12519398 -0.08594259
0.06757614 0.031112751 0.146737 -0.14221925 -0.064725205 0.12821887 -0.097275585 0.102464624
-0.03320895 -0.15250243 0.075134866 -0.11161955 0.016532393 0.18941596 -0.079765655 -0.026644215
-0.11404712 0.06526035 -0.18644308 0.03145645 0.023472575 -0.16772111 0.036696367 -0.103296526
-0.12448196 -0.12558313 -0.15689339 -0.15143286 0.0054684165 0.15614231 0.03370037 -0.17614046
-0.13360746 -0.038360152 -0.15203574 -0.18166612 -0.012990908 -0.040484354 0.17500277 -0.13629061
0.20566127 0.028721023 0.011287661 -0.0014554763 -0.056863725 -0.005693126 -0.16074452 0.033914007
-0.07594943 0.12559961 0.089962855 -0.14155598 0.19968276 -0.14810869 -0.17240879 -0.04423531
-0.07904792 -0.04016649 0.16364148 0.021777319 0.20121989 0.15124908 -0.052936673 0.094909124
-0.22141363 0.15149847 -0.13005038 0.090173244 0.15040815 0.07539805 -0.0067926524 -0.021821981
0.05569348 0.090457276 0.09880305 0.031836048 0.12567426 0.07973831 0.042536605 -0.11017475
0.1759949 0.12834246 -0.054614674 -0.022232799 0.04135165 -0.115952335 0.01385575 -0.15975133
-0.03234859 -0.10607198 -0.0002399756 -0.17010769 -0.20922065 -0.108018115 -0.0030622375 -0.12528785
0.122506596 -0.03788686 -0.14588568 -0.2437437 0.012871651 0.04523304 0.052001487 0.16619498
00000000: ae42 53be cc4f e8bd d316 463d 1f4c 10bd
00000010: 5ce8 1d3e 0abe 07bd 8762 763d 0d73 3abd
00000020: 9595 86bc cd08 34bc 4358 113e 0179 0c3e
00000030: 6680 d33d c121 803d 466b 963d 33bd fdbc
00000040: e557 3d3e c015 303e bde8 aabd b6e0 0ebe
00000050: 2723 43be 71f3 e3bd 57f4 1d3d 2aa2 853c
00000060: 029d ad3b 0ea2 6d3b 7847 ffbc 38d8 d33d
00000070: 9122 ce3c 1061 4dbd e44a 263e d84c 45bd
00000080: 63e8 45bd 6a3a 133e 2069 d1bd 26d9 14bd
00000090: 90e6 083c 6b67 3f3d c737 e6bd 2a30 833d
000000a0: 4880 813d 3986 683d bb32 00bd a5c7 3abe
000000b0: 5dbe 663d 7617 843b 256b 933d f6e5 12be
000000c0: 9739 96bd 461f f43d cac7 093e 7d1b 53bd
000000d0: 0072 3abd c8c2 3e3d df9e bcbd 2bc0 eabd
000000e0: 9441 11bd 6d89 dfbd 64f0 1d3d 7e2c 1bbe
000000f0: 8711 9f3d adea e7bd 15bf 23bd 44bb b63d
00000100: 0946 41bd 0728 843e 7f1c 11be 665c cc3d
00000110: 727d 21be 3aa4 d23d 7a48 80bb d755 ce3d
00000120: c607 3b3e e365 eabd b10c 173e 7823 05be
00000130: 0e73 95bb 6c99 dcbd 9479 9ebd 4f4e 04be
00000140: 82d7 d13d 983f 403d 3568 3ebe b150 2b3e
00000150: c7e1 ddbd c26e 40be a39c 223e da2a 143e
00000160: df40 da3d 9920 673e 0246 93bc 250d f73d
00000170: f1cf 46bd 5a90 cf3d 90bf 0fbe 9a04 363e
00000180: f383 f2bd a0ff 703e e5b3 533e d54f 87be
00000190: 3711 62be c13e 38be c4a7 acbd 2632 14be
000001a0: 2f0a 123e 5021 4abe 4b78 25bc c8d3 023e
000001b0: 69cd 8d3e a6cd d83d c51e b7bc 74ed 38bd
000001c0: 84b1 193e 5577 363e 27cd 98ba 953a 3dbd
000001d0: d516 883c b34d 313d 98a3 4abe b893 fdbd
000001e0: 04e6 7cbd f94a 933c 405f 703d 4e66 71bd
000001f0: 74a3 b53d 4ed6 15be 107c 6cbe 191f 0abe
00000200: 1bdf 04be 3372 28be f0f0 dbbc 04e2 bcbd
00000210: 2d4a 6e3d c077 09be d57a 6bbd 6a5c cf3c
00000220: cded 3dbc 0aef 3abe fc43 5cbc 4266 1ebe
00000230: 03e8 b23d 36d0 e53d 28e9 383e 3b64 cf3d
00000240: 0378 25be 78dc 1dbe 441d 2dbe 3360 0a3d
00000250: ce94 0b3e 6e78 473e da32 003e ab02 b0bd
00000260: 5c65 8a3d 2be0 fe3c 3942 163e eca1 11be
00000270: a68e 84bd cf4b 033e 6c38 c7bd f9d8 d13d
00000280: 1c06 08bd 9929 1cbe 4fe0 993d ca98 e4bd
00000290: f16e 873c 42f6 413e 2d5c a3bd f844 dabc
000002a0: 8991 e9bd 38a7 853d efea 3ebe 7ad8 003d
000002b0: 8f49 c03c 15bf 2bbe ee4e 163d 218d d3bd
000002c0: 66f0 febd dd98 00be a9a8 20be 3711 1bbe
000002d0: 6730 b33b c5e3 1f3e 6609 0a3d 2a5e 34be
000002e0: 65d0 08be 891f 1dbd 42af 1bbe af06 3abe
000002f0: d1d7 54bc ecd2 25bd ed33 333e c48f 0bbe
00000300: de98 523e 5a48 eb3c e2ef 383c aec5 beba
00000310: f0e9 68bd 678d babb 369a 24be 6ae9 0a3d
00000320: 608b 9bbd 2f9d 003e 723e b83d 0df4 10be
00000330: a379 4c3e cea9 17be ee8b 30be 1630 35bd
00000340: e0e3 a1bd 9e85 24bd a291 273e 5966 b23c
00000350: 960c 4e3e 0ae1 1a3e 20d4 58bd b75f c23d
00000360: 41ba 62be 6a22 1b3e ed2b 05be c0ac b83d
00000370: 9804 1a3e 4b6a 9a3d e694 debb 03c4 b2bc
00000380: d91e 643d aa41 b93d 4159 ca3d 8466 023d
00000390: c1b0 003e d74d a33d dd3a 2e3d 4da3 e1bd
000003a0: 0238 343e 356c 033e a3b3 5fbd 8f21 b6bc
000003b0: 5960 293d 6b78 edbd 3a03 633c da95 23be
000003c0: f57f 04bd 443c d9bd f6a1 7bb9 b630 2ebe
000003d0: f03d 56be 9a38 ddbd d2af 48bb 754b 00be
000003e0: bde4 fa3d 412f 1bbd 0e63 15be f397 79be
000003f0: 9ee3 523c 4846 393d 83ff 543d 042f 2a3e

features.0.bias f4 [16]
-0.09046892 -0.12947755 0.09650461 -0.04040066 0.14869796 -0.040385395 -0.11647044 -0.14666894
-0.15867123 0.10727649 0.13984926 0.06431462 0.05194809 0.27200273 -0.12565866 0.042856853
00000000: c547 b9bd c395 04be 35a4 c53d 2a7b 25bd
00000010: 4744 183e 286b 25bd 0e88 eebd 6230 16be
00000020: b67a 22be c7b3 db3d a534 0f3e 62b7 833d
00000030: 85c7 543d f143 8b3e aaac 00be ab8a 2f3d

features.3.weight f4 [32, 16, 3, 3]
0.091543615 -0.041854754 -0.0657858 -0.065649 -0.021201823 -0.030308384 0.03418189 -0.009435997
0.10554091 -0.07156543 0.020544806 -0.004213526 -0.023999823 -0.0140160825 0.051234763 0.12777731
0.05737633 0.18591888 0.012189295 -0.03701789 -0.05185281 -0.02014835 0.078472205 0.060119428
0.062318757 0.11029272 0.10262303 0.08231672 -0.04029117 -0.025604134 -0.013942198 0.08552511
0.15335941 0.16167189 0.17560008 0.19766279 -0.05441765 -0.13749398 -0.12408498 -0.1008625
-0.20494933 -0.13000652 -0.20744969 -0.22780555 -0.14645456 0.14193973 0.16708177 0.27442387
0.036823224 0.13796932 0.13411316 0.14005755 0.1591853 0.1979322 -0.054106317 -0.035553575
0.072954774 -0.056743354 0.08267804 -0.045386225 -0.06229096 -0.0048370464 -0.015803766 -0.12432695
-0.0056192596 0.05183473 -0.06962878 0.005352761 -0.0036294395 0.028865185 0.16613095 0.11425297
-0.17055196 -0.10987763 -0.18603528 -0.04134591 -0.09973771 -0.07701542 -0.09054186 0.026139403
-0.060379967 -0.04550573 0.05597881 0.026370086 0.053742506 -0.03617567 -0.014186519 0.10378754
0.015651463 0.102953784 -0.02930221 -0.06417317 -0.0793915 -0.03153467 -0.037321966 0.017175714
0.011472741 3.3682034e-05 -0.04109645 0.08254076 0.10977404 0.048551403 -0.027032785 0.111351185
-0.02273334 -0.05414268 -0.026988229 0.0803802 0.0103047965 0.019731684 0.06545695 0.1023773
0.09032732 0.15036781 0.11316149 0.05257395 0.15446465 -0.094545335 -0.0563745 -0.081963405
-0.094600946 -0.030453142 -0.08786946 -0.13140583 -0.12327368 0.006931399 0.19795385 0.30424464
0.4508598 0.2780223 0.31392688 0.30768323 0.33782172 0.25464535 0.32993215 -0.057621535
-0.12039172 -0.05458136 -0.0008813003 -0.051546443 -0.028942324 -0.05291525 0.015750127 0.040708963
-0.039468832 -0.057385065 0.023558129 0.07909324 -0.05187412 0.06912098 3.767437e-05 -0.0015622474
-0.009107917 -0.04225601 0.052830588 0.041838203 -0.094640054 0.041960243 0.024633458 -0.052039932
0.05745239 -0.041304197 0.10134317 0.13343118 0.119425245 0.030897822 0.15010616 0.010001387
-0.09378571 0.031294618 0.017631186 0.08218303 0.13164878 0.119464114 0.11974618 0.23707694
0.25123674 0.29938975 0.17574231 0.25640133 -0.19455999 -0.11843698 -0.2437189 -0.20178887
-0.23104131 -0.17024378 -0.12383972 -0.15078925 -0.2864992 0.02657431 -0.044579104 -0.06275033
0.12419892 0.06850393 0.0042739543 0.04519708 0.0059457994 0.06738012 0.070359096 -0.057977926
-0.047850877 -0.04121861 0.05107395 0.025464784 -0.08029485 -0.053712748 0.010573259 -0.015379326
0.039862584 0.03813337 -0.072855525 0.06854961 0.0055389204 -0.041063912 0.079777926 -0.04091123
-0.03280378 -0.047176007 0.0063198092 -0.033501983 0.017471904 0.009213164 0.06147398 -0.049183402
0.058159072 -0.040042255 0.04114693 -0.05096444 -0.035973255 -0.04437439 0.07901815 0.11303048
0.019209636 0.0705468 0.050959576 -0.008599944 -0.06708832 -0.07541129 -0.027673056 0.07664939
0.03420452 -0.009151105 0.082643345 0.019530851 0.07649505 0.068147324 0.019689154 -0.032236777
-0.04762778 0.046075 0.07592096 -0.05598642 0.26615703 0.18502721 0.18692215 0.15745592
00000000: 387b bb3d e46f 2bbd b5ba 86bd fc72 86bd
00000010: 72af adbc 4a49 f8bc 4f02 0c3d 7199 1abc
00000020: d525 d83d e590 92bd 954d a83c 9e11 8abb
00000030: 479b c4bc b6a3 65bc 8bdb 513d 0ed8 023e
00000040: 7103 6b3d 8561 3e3e 9cb5 473c 12a0 17bd
00000050: 9d63 54bd 270e a5bc 09b6 a03d ca3f 763d
00000060: f441 7f3d 26e1 e13d 062c d23d ab95 a83d
00000070: 5b08 25bd c3bf d1bc d16d 64bc ca27 af3d
00000080: 400a 1d3e 518d 253e 82d0 333e 1d68 4a3e
00000090: 0be5 5ebd 39cb 0cbe 4420 febd 0091 cebd
000000a0: 3dde 51be 6e20 05be b16d 54be dc45 69be
000000b0: 2ff8 15be a658 113e 7c17 2b3e 4981 8c3e
000000c0: f3d3 163d d447 0d3e f654 093e 3f6b 0f3e
000000d0: 7901 233e bdae 4a3e 969e 5dbd a0a0 11bd
000000e0: 5069 953d b86b 68bd 1b53 a93d e8e6 39bd
000000f0: ce24 7fbd 1680 9ebb e676 81bc 219f febd
00000100: c421 b8bb a750 543d 8999 8ebd 3766 af3b
00000110: e4db 6dbb ae76 ec3c 3b1e 2a3e 76fd e93d
00000120: 2ca5 2ebe 8607 e1bd 0880 3ebe 545a 29bd
00000130: 4943 ccbd 43ba 9dbd 036e b9bd 4d22 d63c
00000140: fc50 77bd 3764 3abd 094a 653d 1406 d83c
00000150: 1a21 5c3d f02c 14bd 936e 68bc 908e d43d
00000160: 7f37 803c 6fd9 d23d 300b f0bc 396d 83bd
00000170: 0398 a2bd 802a 01bd ebde 18bd 15b4 8c3c
00000180: 2af8 3b3c cf45 0d38 c054 28bd 210b a93d
00000190: 36d1 e03d d6dd 463d dc73 ddbc 170c e43d
000001a0: 453b babc b7c4 5dbd 6b16 ddbc 609e a43d
000001b0: 73d5 283c 57a4 a13c 4b0e 863d 31ab d13d
000001c0: 88fd b83d 05fa 193e 36c1 e73d c857 573d
000001d0: fb2b 1e3e fca0 c1bd f3e8 66bd 6edc a7bd
000001e0: 24be c1bd de78 f9bc e7f4 b3bd 408f 06be
000001f0: e976 fcbd ca20 e33b 6ab4 4a3e f4c5 9b3e
00000200: 19d7 e63e f058 8e3e 06bb a03e a888 9d3e
00000210: f8f6 ac3e e060 823e deec a83e 8f04 6cbd
00000220: ef8f f6bd b490 5fbd 1007 67ba 5d22 53bd
00000230: 7418 edbc a9bd 58bd 6906 813c 71be 263d
00000240: 12aa 21bd 9a0c 6bbd fafc c03c a3fb a13d
00000250: f579 54bd 4d8f 8d3d 8c04 1e38 53c4 ccba
00000260: 5f39 15bc a314 2dbd e364 583d 895e 2b3d
00000270: a5d2 c1bd 81de 2b3d 1bcc c93c d327 55bd
00000280: 3353 6b3d 972e 29bd 028d cf3d 2fa2 083e
00000290: 3995 f43d 6e1d fd3c 6eb5 193e dcdc 233c
000002a0: b912 c0bd c92e 003d 476f 903c 944f a83d
000002b0: f0ce 063e 9aa9 f43d 7c3d f53d 4cc4 723e
000002c0: 1aa2 803e 9d49 993e cbf5 333e 0947 833e
000002d0: bc3a 47be 168f f2bd 7391 79be bea1 4ebe
000002e0: 1896 6cbe 6354 2ebe ae9f fdbd 7f68 1abe
000002f0: 06b0 92be 5eb2 d93c 9498 36bd 3f83 80bd
00000300: 015c fe3d ca4b 8c3d 870c 8c3b 9320 393d
00000310: fbd4 c23b 97fe 893d 6e18 903d 437a 6dbd
00000320: 48ff 43bd d8d4 28bd eb32 513d 869b d03c
00000330: a071 a4bd e601 5cbd 763b 2d3c 92f9 7bbc
00000340: f346 233d bd31 1c3d 4735 95bd bd63 8c3d
00000350: d57f b53b a232 28bd 9c62 a33d 8992 27bd
00000360: 425d 06bd a13b 41bd 6716 cf3b 6039 09bd
00000370: 3d21 8f3c d0f2 163c 24cc 7b3d 8974 49bd
00000380: 3538 6e3d 5903 24bd af89 283d 17c0 50bd
00000390: b158 13bd ecc1 35bd 45d4 a13d 867c e73d
000003a0: 875d 9d3c d77a 903d fdba 503d c8e6 0cbc
000003b0: 9a65 89bd 3c71 9abd 9bb2 e2bc 5bfa 9c3d
000003c0: 0a1a 0c3d 84ee 15bc ea40 a93d 2aff 9f3c
000003d0: 70a9 9c3d d390 8b3d 264b a13c b60a 04bd
000003e0: 5915 43bd 24b9 3c3d 737c 9b3d 0452 65bd
000003f0: bc45 883e c677 3d3e 8568 3f3e 203c 213e

features.3.bias f4 [32]
-0.021020947 -0.019223055 -0.012219168 0.07554635 -0.0071239807 -0.048697073 -0.0081288 -0.07247465
-0.05862271 0.04427412 -0.01516762 -0.037660062 0.073289596 0.060536776 0.012790786 0.03461985
0.059226636 -0.059327304 0.12550576 0.06741374 0.10303416 -0.035258543 -0.054473605 0.044267483
0.07967896 0.043596797 0.0150782745 -0.011808903 0.030140663 0.06624653 -0.063271046 -0.06365494
00000000: 1f34 acbc ab79 9dbc e832 48bc 0bb8 9a3d
00000010: 4870 e9bb 9576 47bd a92e 05bc 976d 94bd
00000020: 5e1e 70bd c858 353d 9c81 78bc 7041 1abd
00000030: db18 963d 69f5 773d 7290 513c 8bcd 0d3d
00000040: a197 723d 3001 73bd 9584 003e 3710 8a3d
00000050: 9303 d33d 436b 10bd b71f 5fbd d251 353d
00000060: b92e a33d 8e92 323d de0a 773c 217a 41bc
00000070: 8de9 f63c 43ac 873d 4094 81bd 855d 82bd

features.6.weight f4 [64, 32, 3, 3]
0.010664341 -0.038843274 0.024396406 -0.05120221 -0.12347651 -0.040517032 0.033910863 0.05270534
0.12169178 0.030312011 -0.0305059 -0.038711384 0.02322954 -0.022472648 0.019083021 0.020624852
0.050643843 -0.018378587 -0.04213944 0.034103684 -0.011254459 -0.032228187 0.045753557 0.03932531
0.04350484 -0.053528864 -0.055963043 -0.028619962 0.042250942 -0.013030362 0.021631714 -0.009904282
-0.007199595 -0.056401644 0.010117032 -0.047373928 -0.023046395 -0.05148924 0.02540697 -0.03333758
0.029958796 -0.041610647 0.045424253 0.013240877 -0.04726481 -0.0017343102 -0.034775324 -0.02658193
0.009992418 -0.04998202 0.009983973 0.0063697733 0.03750471 -0.01739402 0.013918372 -0.012791519
0.0050517144 -0.018460356 -0.0056792526 0.046675187 -0.040854998 -0.04263878 0.053371932 0.0044025406
0.007042268 -0.04003588 -0.051358435 0.047550555 0.055735894 0.012312865 -0.022149483 0.011120053
-0.039398797 -0.042061303 -0.013884226 -0.016525494 0.01017661 -0.035376392 -0.03267034 -0.00036243303
0.03189797 -0.00509112 -0.021145936 -0.06303894 -0.01861609 0.0067321206 -0.05706766 0.03728606
0.03723016 0.054641053 0.03017602 -0.048325904 0.043866396 -0.0347536 -0.051007587 0.04393177
-0.026986022 0.04534047 -0.0102822315 0.032113746 0.043008655 -0.03959775 0.031656 0.027939765
-0.01686537 -0.03343887 0.04869181 -0.025629546 -0.05054605 -0.0397619 -0.008616775 -0.0495462
-0.043311536 0.0036132266 0.0082629565 0.05037737 0.0017146453 -0.010740377 0.049560964 0.0088056745
0.039452355 0.046118174 -0.018204782 0.01593039 0.028270619 -0.004522408 -0.03985057 0.041351233
-0.03484683 -0.022647658 -0.036827724 -0.0064170538 -0.0025414915 0.017345596 0.032987766 0.0068653827
-0.004606649 -0.049570933 -0.018899234 -0.056070827 -0.049043328 0.030825725 0.006671235 -0.0011664578
-0.018856978 0.016372962 0.045813266 -0.05343105 -0.046888914 0.02013939 0.022932133 0.0056052003
0.03493984 0.044438384 -0.042010523 0.044301663 0.033621524 0.012202412 0.022240056 -0.0048666387
0.048534766 0.04718965 0.036695648 -0.04631369 -0.054989252 -0.041403573 0.033112697 -0.031830326
-0.061354022 -0.034534946 0.009840693 0.010737234 -0.03514995 0.045171395 0.031142458 -0.059036545
-0.017354103 -0.04744747 0.012406904 0.041513067 -0.0023702676 0.023272924 0.061360385 -0.05518947
0.03105482 0.038057696 0.00352473 0.048959456 -0.005576745 -0.047784485 -0.022999372 -0.018941704
0.005637201 -0.0040184315 -0.022962097 -0.05188838 0.022582108 -0.038649715 0.043594364 0.039842654
-0.00058474764 -0.0066518285 0.054462425 0.032129 0.050758608 -0.0055924943 0.052392248 -0.06391123
0.03318232 -0.016103579 -0.011136252 -0.052230973 0.029297596 -0.005408487 -0.045876905 -0.022776283
0.01780379 0.0016090297 -0.06796653 -0.046552848 -0.008150905 -0.0045796805 0.033336613 0.014111834
0.041119605 0.02444719 -0.04266584 0.029105961 0.002840515 0.028268946 -0.014937417 -0.026576342
-0.015077657 -0.05593351 0.04021173 -0.023540424 0.025178812 0.05534734 0.010075842 0.033032846
0.0025087195 -0.04765089 0.012307924 0.006306847 0.04180447 -0.058762584 -0.04210792 0.026286922
-0.055848576 -0.012316616 -0.02961261 0.00692174 0.032191914 -0.009679968 0.0012455238 -0.021009983
00000000: 7db9 2e3c 201a 1fbd f9da c73c 69b9 51bd
00000010: 41e1 fcbd 30f5 25bd 1ee6 0a3d 8ee1 573d
00000020: 8a39 f93d e550 f83c 82e7 f9bc d48f 1ebd
00000030: e04b be3c 8f18 b8bc ff53 9c3c 73f5 a83c
00000040: eb6f 4f3d b18e 96bc 689a 2cbd 4eb0 0b3d
00000050: 9f64 38bc b401 04bd 1568 3b3d 9413 213d
00000060: 2232 323d 1541 5bbd 8139 65bd 6974 eabc
00000070: 530f 2d3d 4d7d 55bc fe34 b13c 9245 22bc
00000080: 95ea ebbb 6905 67bd e8c1 253c 2a0b 42bd
00000090: cbcb bcbc 62e6 52bd 4722 d03c fc8c 08bd
000000a0: 266c f53c ed6f 2abd c80e 3a3d 43f0 583c
000000b0: bf98 41bd cb51 e3ba 9270 0ebd 59c2 d9bc
000000c0: 3db7 233c f2b9 4cbd d193 233c 88b9 d03b
000000d0: 8a9e 193d e77d 8ebc e209 643c 8593 51bc
000000e0: da88 a53b 2c3a 97bc 0619 babb 7b2e 3f3d
000000f0: 9257 27bd 00a6 2ebd 879c 5a3d 3043 903b
00000100: d3c2 e63b aafc 23bd 395d 52bd 5fc4 423d
00000110: 524b 643d e6bb 493c d572 b5bc e230 363c
00000120: a260 21bd 7948 2cbd aa7a 63bc 7960 87bc
00000130: ccbb 263c d6e6 10bd 56d1 05bd f004 beb9
00000140: 72a7 023d 69d3 a6bb 3e3a adbc 8f1a 81bd
00000150: c580 98bc 1f99 dc3b c7bf 69bd 45b9 183d
00000160: a77e 183d 4ccf 5f3d b333 f73c 62f1 45bd
00000170: 40ad 333d ca59 0ebd 55ed 50bd cdf1 333d
00000180: ca11 ddbc eeb6 393d ce76 28bc b489 033d
00000190: d829 303d 4031 22bd b9a9 013d efe1 e43c
000001a0: 3f29 8abc 32f7 08bd 1071 473d 0ef5 d1bc
000001b0: 6009 4fbd 60dd 22bd 602d 0dbc f5f0 4abd
000001c0: 7067 31bd e2cb 6c3b 5a61 073c 8058 4e3d
000001d0: f3bd e03a 68f8 2fbc 7000 4b3d ad45 103c
000001e0: cb98 213d 69e6 3c3d 3222 95bc 7380 823c
000001f0: c997 e73c b530 94bb 5a3a 23bd e95f 293d
00000200: 8dbb 0ebd 9587 b9bc abd8 16bd 2646 d2bb
00000210: 278f 26bb 5a18 8e3c 2e1e 073d 01f7 e03b
00000220: 5ff3 96bb e40a 4bbd 91d2 9abc 86aa 65bd
00000230: a8e1 48bd 3b86 fc3c 609a da3b d4e3 98ba
00000240: f379 9abc 9720 863c b1a6 3b3d 84da 5abd
00000250: 970e 40bd 5dfb a43c 2bdc bb3c d4ab b73b
00000260: 141d 0f3d 0605 363d 3a13 2cbd a975 353d
00000270: b9b6 093d a0ec 473c c730 b63c 5378 9fbb
00000280: 64cc 463d ef49 413d 2d4e 163d 6cb3 3dbd
00000290: 693c 61bd cb96 29bd 2ea1 073d 8460 02bd
000002a0: 5b4e 7bbd 8474 0dbd dc3a 213c 39eb 2f3c
000002b0: 65f9 0fbd a405 393d 781e ff3c 4ed0 71bd
000002c0: 312a 8ebc 4758 42bd 5446 4b3c 9b09 2a3d
000002d0: 7e56 1bbb dca6 be3c 0755 7b3d 5b0e 62bd
000002e0: ae66 fe3c 63e2 1b3d 28ff 663b b689 483d
000002f0: 21bd b6bb aab9 43bd 2e69 bcbc a22b 9bbc
00000300: 45b8 b83b 0cad 83bb 021b bcbc e988 54bd
00000310: 1dfe b83c 2a4f 1ebd 0190 323d 0d32 233d
00000320: c049 19ba 95f7 d9bb fe13 5f3d b399 033d
00000330: 42e8 4f3d 3e41 b7bb 4199 563d e4e3 82bd
00000340: 2fea 073d a7eb 83bc d474 36bc 25f0 55bd
00000350: 8301 f03c ad39 b1bb 6ce9 3bbd 5495 babc
00000360: 41d9 913c 14e6 d23a 0932 8bbd 33ae 3ebd
00000370: 608b 05bc 2511 96bb f98b 083d 5235 673c
00000380: 086d 283d 7945 c83c 60c2 2ebd a06f ee3c
00000390: ef27 3a3b 4794 e73c 11bc 74bc a1b6 d9bc
000003a0: 4708 77bc 891a 65bd 0eb5 243d d9d7 c0bc
000003b0: cc43 ce3c e4b3 623d 2515 253c 734d 073d
000003c0: 5469 243b 942d 43bd 2da7 493c aba9 ce3b
000003d0: 2a3b 2b3d 09b1 70bd 5b79 2cbd ac57 d73c
000003e0: 7ac1 64bd a2cb 49bc 2596 f2bc c3cf e23b
000003f0: abdb 033d ba98 1ebc d840 a33a 211d acbc

features.6.bias f4 [64]
-0.03320371 0.104682386 0.07396809 -0.011811963 0.035134684 0.024653567 -0.034398265 0.17881879
0.04428721 0.036274873 0.15000087 -0.008175359 0.035361737 0.04837782 0.042001333 0.08395097
0.10739861 -0.00066415494 0.0089752935 0.011488593 0.037549894 -0.007853737 0.043847673 -0.06632951
0.0038480314 0.02929853 0.053741537 -0.06002187 -0.024041597 0.10594128 0.018040735 -0.030991474
0.22635566 0.19144455 0.24674414 0.14057621 -0.04251577 -0.033142578 0.23255163 0.13501334
0.04206962 -0.010771867 0.08140788 0.07383767 0.0064217043 0.016572217 0.14523897 0.028426848
0.029083446 -0.0534251 0.04226113 0.0669951 0.059320863 0.07706517 -0.07110654 0.0835111
-0.01630183 0.01688823 0.009450391 0.14138795 -0.037829455 -0.07493411 0.08219319 -0.008932879
00000000: 9d00 08bd b863 d63d 957c 973d f786 41bc
00000010: 63e9 0f3d 47f6 c93c 32e5 0cbd 461c 373e
00000020: 8166 353d f694 143d d499 193e f1f1 05bc
00000030: 78d7 103d d227 463d 9709 2c3d 7cee ab3d
00000040: cdf3 db3d af1a 2eba 1c0d 133c a73a 3c3c
00000050: ebcd 193d f6ac 00bc 9e99 333d c4d7 87bd
00000060: 412f 7c3b 7903 f03c 1620 5c3d 7ed9 75bd
00000070: e2f2 c4bc bef7 d83d 2aca 933c d5e1 fdbc
00000080: c7c9 673e 0a0a 443e 7faa 7c3e 36f3 0f3e
00000090: 0425 2ebd 83c0 07bd 0422 6e3e f040 0a3e
000000a0: 3251 2c3d 7c7c 30bc 2db9 a63d 3438 973d
000000b0: 296d d23b 75c2 873c 86b9 143e 6cdf e83c
000000c0: 6840 ee3c 47d4 5abd 021a 2d3d ba34 893d
000000d0: 6ffa 723d 58d4 9d3d 4ea0 91bd de07 ab3d
000000e0: 6a8b 85bc 2f59 8a3c d0d5 1a3c 01c8 103e
000000f0: 0ff3 1abd 0e77 99bd e754 a83d 365b 12bc

classifier.weight f4 [1, 64]
0.07806161 -0.19857325 -0.25580776 -0.081142135 -0.16501914 0.20603625 -0.0498513 -0.3105548
0.17365173 0.20465828 -0.24456814 0.13101684 0.1777525 0.13121396 0.11299855 -0.32365975
-0.31264716 -0.00715584 -0.2718954 0.18262063 -0.23363477 0.11822396 0.11299621 -0.038683757
0.11023515 0.1281045 0.14779247 0.015772127 0.15161613 -0.29933587 0.110272415 -0.2956018
-0.42066038 -0.35612237 -0.3859911 -0.32666093 0.04758394 0.109323725 -0.45734075 -0.2695529
0.16180377 0.12900417 -0.34750113 -0.28735688 -0.08119469 0.15634367 -0.37149748 0.123290256
0.11607233 -0.009547644 -0.28228897 -0.25879413 -0.32629788 -0.24700439 -0.08024246 -0.3454214
0.1860118 0.1488033 0.08818818 -0.38071892 -0.08666283 -0.10050358 -0.31079605 0.1303767
00000000: c4de 9f3d c956 4bbe 3cf9 82be d92d a6bd
00000010: c7fa 28be 2bfb 523e e030 4cbd 0a01 9fbe
00000020: c2d1 313e f191 513e 1270 7abe 4729 063e
00000030: c004 363e f45c 063e c96b e73d bbb6 a5be
00000040: 4a13 a0be 897b eabb e035 8bbe e700 3b3e
00000050: f43d 6fbe 671f f23d 8f6a e73d dc72 1ebd
00000060: f7c2 e13d d32d 033e e956 173e 8c34 813c
00000070: 4241 1b3e 8d42 99be 81d6 e13d 1e59 97be
00000080: cc60 d7be ac55 b6be a0a0 c5be 1a40 a7be
00000090: 61e7 423d 1ee5 df3d 9128 eabe d602 8abe
000000a0: e3af 253e ab19 043e abeb b1be 7120 93be
000000b0: 6749 a6bd 8e18 203e eb34 bebe 9a7f fc3d
000000c0: 54b7 ed3d b96d 1cbc 2e88 90be aa80 84be
000000d0: 8410 a7be b8ee 7cbe 2956 a4bd 13db b0be
000000e0: e179 3e3e e45f 183e 019c b43d 97ed c2be
000000f0: 487c b1bd d2d4 cdbd a920 9fbe 7881 053e
