best_fire_model.pth (torch, 98621 bytes, 7 tensors)

features.0.weight f4 [16, 3, 3, 3]
0	0xbe51eec7	-0.20501243
1	0xbe027349	-0.1273929
2	0x3d00a6a7	0.031408932
3	0xbc424f7d	-0.011859772
4	0x3e23ca20	0.15995073
5	0xbd03096b	-0.031991404
6	0x3dbae0ba	0.091248944
7	0xbd0268c5	-0.031838197
8	0xbbf1e8a1	-0.007382468
9	0xbb51d5a7	-0.0032018216
10	0x3e0ae3b6	0.13563427
11	0x3e033310	0.12812448
12	0x3e07205e	0.13195941
13	0x3d99aa4a	0.07503183
14	0x3da71a04	0.08159259
15	0x3bcbcc73	0.0062194406
16	0x3e52ab29	0.20573105
17	0x3e410bb8	0.18852127
18	0xbdd4c54b	-0.10389193
19	0xbe33d25b	-0.17560713
20	0xbe6a5850	-0.22885251
21	0xbde46baf	-0.111533515
22	0x3ca6b01b	0.020347646
23	0xbbc538d3	-0.006018737
24	0x3c4c3fb7	0.012466363
25	0xbbe915fd	-0.007113217
26	0xbd3d4410	-0.046207488
27	0x3e29dc2d	0.16587897
28	0x3d24399b	0.040094
29	0xbdf93073	-0.12167444
30	0x3e60babd	0.21946235
31	0xbd461f40	-0.048369646
32	0xbdf4a2a7	-0.11945086
33	0x3e2f491b	0.17117731
34	0xbe0fd02a	-0.14044252
35	0xbdf113a7	-0.117713265
36	0x3d7b7e16	0.06139954
37	0x3d60d7c2	0.054893263
38	0xbe3df558	-0.18550622
39	0x3de61afc	0.112356156
40	0x3d6be002	0.057586677
41	0xbc764a39	-0.0150323445
42	0xbc37c369	-0.011216023
43	0xbe64e3d8	-0.2235254
44	0xbcc2f03d	-0.023796195
45	0x3db9828d	0.09058104
46	0x3de9068d	0.113782026
47	0xbe3d9363	-0.18513255
48	0x3c0725ee	0.008248789
49	0x3e1618e4	0.14657933
50	0x3dbf81b4	0.09350911
51	0x3b74a0c7	0.0037327276
52	0xbd560922	-0.052254803
53	0xbad9a2bd	-0.0016604286
54	0xbdc42795	-0.09577862
55	0xbdebb33e	-0.11508797
56	0xbd495ead	-0.049162555
57	0xbdfe89c9	-0.12428624
58	0x3cd479bf	0.02593696
59	0xbe34f2a2	-0.17670682
60	0x3d920dc3	0.07131531
61	0xbdf0132d	-0.117224075
62	0xbd711a53	-0.058862995
63	0x3dc96054	0.09832826
64	0xbd11d8a8	-0.03560701
65	0x3e84306f	0.25818202
66	0xbe107da8	-0.14110434
67	0x3dd132da	0.10214777
68	0xbe2a34b5	-0.16621669
69	0x3de4f762	0.11179997
70	0x3bd71332	0.0065635676
71	0x3dc97468	0.09836656
72	0x3e50c3a2	0.20387128
73	0xbdb829c2	-0.0899234
74	0x3e23ad10	0.15983987
75	0xbdf19250	-0.11795485
76	0x3c24f597	0.010068319
77	0xbdd5e13d	-0.104433514
78	0xbd73bc89	-0.059505973
79	0xbddef8ac	-0.10887274
80	0x3de05b05	0.109548606
81	0x3d4ed85e	0.050499313
82	0xbe400c03	-0.18754582
83	0x3e20bc4d	0.15696831
84	0xbdbf9535	-0.09354631
85	0xbe36b9d6	-0.17844328
86	0x3e22f2c4	0.1591292
87	0x3e2c041f	0.16798447
88	0x3dfe43be	0.124152645
89	0x3e6f5f2c	0.23376149
90	0xbc8be235	-0.017075637
91	0x3deebbce	0.11656915
92	0xbd77d7ad	-0.06050842
93	0x3de84256	0.113407776
94	0xbe087ef5	-0.1332968
95	0x3e34b605	0.1764756
96	0xbdc746c5	-0.09730295
97	0x3e80895a	0.2510479
98	0x3e5ac1cf	0.21362995
99	0xbe913e79	-0.28367975
100	0xbe7b87a4	-0.24563462
101	0xbe5a97bd	-0.21346946
102	0xbdbf047b	-0.093270265
103	0xbe22d773	-0.159025
104	0x3df465ff	0.11933517
105	0xbe499a13	-0.19687681
106	0xbc7978de	-0.015226571
107	0x3de79f3d	0.11309669
108	0x3e92f452	0.28702027
109	0x3df3fc37	0.119133405
110	0xbbf9c0de	-0.0076218685
111	0xbd1425b3	-0.036168765
112	0x3e21f4f3	0.15816097
113	0x3e3e097f	0.1855831
114	0x3ad473e4	0.0016208855
115	0xbd2d5ad3	-0.042322945
116	0x3caf0582	0.021364931
117	0x3d250f1f	0.040297624
118	0xbe4a94a7	-0.19783269
119	0xbdf9d83a	-0.12199445
120	0xbd8468a7	-0.06465273
121	0x3c6e75fb	0.014554496
122	0x3d60f2fa	0.05491922
123	0xbd89889f	-0.067155115
124	0x3da77d43	0.08178189
125	0xbe1c0d29	-0.15239395
126	0xbe7c50de	-0.24640223
127	0xbe16a5ba	-0.14711657
128	0xbe10a51f	-0.14125489
129	0xbe37e9f3	-0.17960338
130	0xbd2d0fc3	-0.04225136
131	0xbddf2672	-0.10896005
132	0x3d19f754	0.037589386
133	0xbe1d5b8b	-0.15366952
134	0xbd9d4bee	-0.07680498
135	0xbdadead8	-0.084920585
136	0xbe03ac5c	-0.12858719
137	0xbe9e2872	-0.30890232
138	0x3b20565a	0.0024465532
139	0xbe16f389	-0.14741339
140	0x3d8e527d	0.06949327
141	0x3e619cb9	0.22032441
142	0x3e8f7a4a	0.28022987
143	0x3e2f4b68	0.17118609
144	0xbe860fe9	-0.26184013
145	0xbe8580fe	-0.26074976
146	0xbe920905	-0.28522506
147	0x3d407a7d	0.046991814
148	0x3e10dc07	0.14146434
149	0x3e34b737	0.17648016
150	0x3e6925da	0.22768345
151	0x3c161920	0.009161264
152	0x3e0a2312	0.13489941
153	0xbd736f40	-0.05943227
154	0x3d4d775b	0.050162654
155	0xbe7d3f26	-0.2473112
156	0xbd2c2315	-0.042025644
157	0x3e127898	0.14303815
158	0xbdd7608b	-0.10516461
159	0x3e57cb7a	0.21073714
160	0x3d8bf44e	0.06833707
161	0xbda00d0b	-0.07814988
162	0x3d99e04f	0.075134866
163	0xbde498ca	-0.11161955
164	0x3c876ef1	0.016532393
165	0x3e41f642	0.18941596
166	0xbda35c2d	-0.079765655
167	0xbcda44f8	-0.026644215
168	0xbde99189	-0.11404712
169	0x3d85a738	0.06526035
170	0xbe3eeaef	-0.18644308
171	0x3d00d87a	0.03145645
172	0x3cc0498f	0.023472575
173	0xbe2bbf15	-0.16772111
174	0x3d164eee	0.036696367
175	0xbdd38d21	-0.103296526
176	0xbdfef066	-0.12448196
177	0xbe0098dd	-0.12558313
178	0xbe20a8a9	-0.15689339
179	0xbe1b1137	-0.15143286
180	0x3bb33067	0.0054684165
181	0x3e1fe3c5	0.15614231
182	0x3d0a0966	0.03370037
183	0xbe345e2a	-0.17614046
184	0xbe08d065	-0.13360746
185	0xbd1d1f89	-0.038360152
186	0xbe1baf42	-0.15203574
187	0xbe3a06af	-0.18166612
188	0xbc54d7d1	-0.012990908
189	0xbc43b707	-0.011945493
190	0x3e3348c2	0.17508224
191	0xbe4ad0d7	-0.19806229
192	0x3e77703c	0.24163908
193	0x3cb82641	0.022479178
194	0xbd6f001a	-0.058349706
195	0x3ce5b0f1	0.028038474
196	0xbda2bba5	-0.079459466
197	0xbdab6f0b	-0.08370789
198	0xbe0e478d	-0.13894482
199	0x3cf6636e	0.030076709
200	0xbe0b65d1	-0.13613059
201	0x3e1d76b0	0.15377307
202	0x3da28555	0.07935587
203	0xbe57194c	-0.21005744
204	0x3e61f657	0.22066627
205	0xbe32fb6d	-0.17478724
206	0xbe7f2634	-0.24916917
207	0x3c121398	0.008915804
208	0xbd58929e	-0.0528742
209	0xbd99c61f	-0.07508492
210	0x3e662a4f	0.22477077
211	0x3d2fe56e	0.04294341
212	0x3e248aa2	0.16068509
213	0x3e548960	0.2075553
214	0xbd3bf5cf	-0.04588872
215	0x3d46889e	0.048470132
216	0xbe313651	-0.17305876
217	0x3e1c1f7a	0.15246382
218	0xbddd5aae	-0.108083114
219	0x3e04e4b9	0.12977876
220	0x3e164de2	0.14678147
221	0x3dbf69fd	0.093463875
222	0x3d3ac93a	0.04560206
223	0xbc327de2	-0.010894271
224	0x3d9ff7ba	0.07810922
225	0x3e0e1044	0.13873392
226	0x3dd0bf1e	0.10192703
227	0x3d5ee736	0.05441972
228	0x3e2b5063	0.16729884
229	0x3da3d565	0.07999686
230	0x3d809f2f	0.06280362
231	0xbd61f1cf	-0.055162247
232	0x3e43a967	0.1910759
233	0x3e1d61fb	0.15369408
234	0xbd3f37b5	-0.046683986
235	0xbd8064bf	-0.06269216
236	0x3cae67e8	0.02128978
237	0xbdf0a6c5	-0.11750559
238	0xbd01c27d	-0.03167962
239	0xbe3cb4d0	-0.1842835
240	0xbcb9fdb9	-0.022703992
241	0xbe0e0a1d	-0.13871045
242	0xbcb156b2	-0.021647785
243	0xbe63f33f	-0.2226076
244	0xbe861353	-0.26186618
245	0xbe2657d6	-0.16244444
246	0xbd38fc0c	-0.045162246
247	0xbe2b7180	-0.16742516
248	0x3da105e9	0.078624554
249	0xbda163d4	-0.07880369
250	0xbe417ad1	-0.18894507
251	0xbe940473	-0.28909644
252	0xbcff7f05	-0.031188497
253	0x3a3c5208	0.00071838545
254	0x3bbd7dfa	0.00578284
255	0x3e07342e	0.13203499

features.0.bias f4 [16]
0	0xbd90358d	-0.07041464
1	0xbdbbe238	-0.09174007
2	0x3df7f3a9	0.12107021
3	0xbd042901	-0.032265667
4	0x3e208e2d	0.15679236
5	0x3aa99c7a	0.001294031
6	0xbdee880e	-0.11647044
7	0xbe04a6b7	-0.12954222
8	0xbe56ed1c	-0.20988888
9	0x3d9c0dd0	0.07619822
10	0x3e1b8c5e	0.15190265
11	0x3d4f3cc0	0.050595045
12	0x3d79f093	0.061020445
13	0x3eb95e24	0.36204636
14	0xbe2e1e81	-0.17003824
15	0x3d0361ae	0.032075576

features.3.weight f4 [32, 16, 3, 3]
0	0x3e0425ea	0.12905088
1	0x3c9535a6	0.018214058
2	0xbd7c293b	-0.061562758
3	0xbcfada74	-0.030621745
4	0xbc076b76	-0.008265367
5	0xbdb2df5c	-0.08734009
6	0xbc9ae426	-0.018907618
7	0xbd5e837e	-0.05432462
8	0x3c155606	0.009114748
9	0x3dc4e6d5	0.0961434
10	0x3e8f7ad8	0.2802341
11	0x3eac816c	0.3369249
12	0x3e872b9e	0.26400465
13	0x3e889c23	0.26681623
14	0x3ec985db	0.39359936
15	0x3ed29f6f	0.41137263
16	0x3ea78e78	0.32725883
17	0x3ef7b69f	0.48381516
18	0xbd52c1c7	-0.05145433
19	0xbe1ee4be	-0.15516946
20	0xbe73f0b9	-0.23822297
21	0xbde052a1	-0.1095326
22	0xbc83e141	-0.01609862
23	0xbdc0cdae	-0.0941423
24	0xbceae9ce	-0.02867594
25	0x3ca1154a	0.019663472
26	0xbd18f6c1	-0.037344698
27	0x3e97164c	0.295092
28	0x3e203a86	0.15647325
29	0x3c231b9c	0.009955313
30	0x3e2ef2a5	0.17084749
31	0x3e5e020a	0.21680465
32	0x3e20a70f	0.15688728
33	0x3e904057	0.28174087
34	0x3e8e3a6a	0.2777894
35	0x3e44ba86	0.19211778
36	0xbec7ba7d	-0.39009467
37	0xbf06b995	-0.52626926
38	0xbef616b3	-0.48064193
39	0xbecf3250	-0.40468073
40	0xbf0905d2	-0.53524506
41	0xbed8c03b	-0.4233416
42	0xbf156d7e	-0.58370197
43	0xbf1bfd88	-0.60933733
44	0xbeec049b	-0.46097264
45	0x3e918ff4	0.2843014
46	0x3ea93046	0.33044642
47	0x3ee7f721	0.45305732
48	0x3e6c82a4	0.2309671
49	0x3e901b03	0.28145608
50	0x3e784573	0.24245243
51	0x3e9bdd23	0.3044215
52	0x3e9bd6fd	0.3043746
53	0x3e9ac21c	0.3022622
54	0xbd5d9e96	-0.054106317
55	0xbd11a0a0	-0.035553575
56	0x3d956950	0.072954774
57	0xbd686bb8	-0.056743354
58	0x3da9531b	0.08267804
59	0xbd39e6e8	-0.045386225
60	0xbd7f24ce	-0.06229096
61	0xbb9e8016	-0.0048370464
62	0xbc8176e6	-0.015803766
63	0x3c31f58e	0.010861767
64	0x3e3fe5eb	0.1874005
65	0x3eafef2f	0.3436217
66	0x3e1d2d8f	0.1534941
67	0x3e64968a	0.22323051
68	0x3e7a67d9	0.24453677
69	0x3e65a80e	0.22427389
70	0x3ec4ffb2	0.3847633
71	0x3eb63596	0.35587758
72	0xbe9fb18b	-0.31190142
73	0xbe3fdc77	-0.18736444
74	0xbe9abf46	-0.30224055
75	0xbe153ea4	-0.14574677
76	0xbe4778d5	-0.19479688
77	0xbe5ed43c	-0.21760648
78	0xbe618f57	-0.22027336
79	0xbdb71f8d	-0.08941565
80	0xbe6ebf3c	-0.23315138
81	0x3b3edf33	0.0029124736
82	0x3db9bb15	0.09068886
83	0x3b3d1bab	0.0028855603
84	0x3ddd7068	0.108124554
85	0xbabf4b1e	-0.001459453
86	0xbd00afbc	-0.031417593
87	0x3e268eac	0.16265363
88	0x3d4e32c7	0.050341394
89	0x3dd32067	0.10308915
90	0xbe27f563	-0.16402201
91	0xbe8aa330	-0.27077627
92	0xbe9980b7	-0.29981014
93	0xbde6c740	-0.11268473
94	0xbe1920f4	-0.14953977
95	0xbdef3a3d	-0.1168103
96	0xbe04fa5a	-0.12986127
97	0xbe1ec479	-0.15504636
98	0xbe39e965	-0.18155439
99	0x3dbd734d	0.092505075
100	0x3dd76052	0.105164185
101	0x3d0f3e03	0.03497125
102	0x3ca954d9	0.020670341
103	0x3df1436f	0.1178044
104	0xbcc9f8da	-0.024654794
105	0xbd226c8a	-0.039654292
106	0xbcd330f8	-0.025780186
107	0x3d943d37	0.07238238
108	0x3e311bd1	0.17295767
109	0x3e40062a	0.18752351
110	0x3eaf7d18	0.34275126
111	0x3ec7f3eb	0.39053282
112	0x3ebf1b55	0.3732554
113	0x3eed5c06	0.4635927
114	0x3ed3c950	0.41364527
115	0x3eabfeb4	0.3359276
116	0x3edfd3ab	0.43716177
117	0xbe87f999	-0.26557615
118	0xbe8f5fa5	-0.28002658
119	0xbe8d007d	-0.27539435
120	0xbe8346e5	-0.25640026
121	0xbe653a8c	-0.22385615
122	0xbe8810f2	-0.26575428
123	0xbea5208a	-0.32251388
124	0xbea6f13e	-0.32605928
125	0xbe211adc	-0.15732902
126	0x3eae9854	0.34100592
127	0x3f04873f	0.5176887
128	0x3f1e4499	0.6182342
129	0x3ee18004	0.4404298
130	0x3ef549d6	0.47907895
131	0x3edd96b1	0.4327903
132	0x3f08a358	0.5337424
133	0x3edfc9a3	0.43708524
134	0x3ef671c7	0.4813368
135	0xbe111e46	-0.14171705
136	0xbe4579ed	-0.19284792
137	0xbe01f5e9	-0.12691464
138	0xbd83fddf	-0.064449064
139	0xbde0a95f	-0.10969805
140	0xbdbd8e17	-0.09255617
141	0xbddd5b76	-0.108084604
142	0xbd1b4948	-0.037911683
143	0xbcbcdf4c	-0.023055695
144	0xbccd3933	-0.025051689
145	0xbd40449e	-0.04694044
146	0x3cff2227	0.031144215
147	0x3de77890	0.11302292
148	0xbc72f561	-0.014829011
149	0x3dcc4dd6	0.099757835
150	0x3d1d877d	0.03845929
151	0x3d2b6b19	0.041850183
152	0x3cda1a28	0.0266238
153	0xbda80333	-0.08203735
154	0x3c491f2d	0.012275499
155	0x3c2d333f	0.0105713
156	0xbdef4563	-0.11683156
157	0x3b861303	0.004091622
158	0xbb2da9b9	-0.0026498868
159	0xbdb2a8a8	-0.08723575
160	0xbbdee228	-0.0068018623
161	0xbdb528af	-0.088456504
162	0x3de36451	0.11103118
163	0x3e15a2f1	0.14612938
164	0x3e095370	0.13410735
165	0x3d05e8a0	0.03269255
166	0x3e1f38f3	0.15549068
167	0x3c98ddda	0.018660475
168	0xbdd4a8a1	-0.10383726
169	0x3cabfe43	0.020995265
170	0x3c4980a6	0.012298739
171	0x3db23b6b	0.08702739
172	0x3e162cea	0.14665571
173	0x3e0f25c6	0.13979253
174	0x3e20619b	0.15662234
175	0x3e9930e4	0.29920113
176	0x3e95cc40	0.29257393
177	0x3ea52b64	0.32259667
178	0x3e65001f	0.22363327
179	0x3e8a496b	0.27009138
180	0xbe641dc9	-0.22276987
181	0xbe120119	-0.14258231
182	0xbe8635fd	-0.26213065
183	0xbe6b4f5a	-0.22979489
184	0xbe8276e7	-0.2548134
185	0xbe40164a	-0.18758503
186	0xbe333285	-0.1749974
187	0xbe4f98a5	-0.20273073
188	0xbea886af	-0.32915255
189	0x3e1d4d25	0.1536146
190	0x3d1c216f	0.038117822
191	0xbc7cf79b	-0.015439893
192	0x3ea0c74a	0.31402045
193	0x3e79c465	0.24391325
194	0x3e2a4b76	0.16630349
195	0x3e1aef6e	0.15130398
196	0x3dda09b1	0.1064638
197	0x3e425ac7	0.18979941
198	0x3d90186e	0.070359096
199	0xbd6d7a43	-0.057977926
200	0xbd43ff48	-0.047850877
201	0xbd28d4d8	-0.04121861
202	0x3d5132eb	0.05107395
203	0x3cd09b86	0.025464784
204	0xbda471a0	-0.08029485
205	0xbd5c01e6	-0.053712748
206	0x3c2d3b76	0.010573259
207	0xbd2a2084	-0.041534916
208	0x3bca95b5	0.0061823973
209	0x3bf197f6	0.0073728515
210	0xbdbd6f14	-0.09249702
211	0x3cd16640	0.025561452
212	0xbcf4dc88	-0.029890314
213	0xbda5c3e3	-0.08094003
214	0x3c6aaa62	0.014322849
215	0xbdbd9d32	-0.09258498
216	0xbc882b46	-0.016622197
217	0xbd1fa482	-0.038975246
218	0x3c339e83	0.010963085
219	0xb9b37af8	-0.0003423316
220	0x3d23d764	0.040000334
221	0x3cb0e2d8	0.021592543
222	0x3dc950d8	0.09829873
223	0xbc955d7b	-0.018233052
224	0x3da06945	0.078325786
225	0xbd208a71	-0.039194528
226	0x3d2c5cce	0.042080693
227	0xbd470d1e	-0.048596494
228	0xbd088960	-0.033334136
229	0xbd26e0d5	-0.04074176
230	0x3dab1f86	0.08355622
231	0x3ded50fd	0.11587713
232	0x3cb78b7e	0.022405382
233	0x3d94ba0b	0.072620474
234	0x3d4a5a6d	0.049402643
235	0xbc228780	-0.009920001
236	0xbd8a1216	-0.06741731
237	0xbd9d630a	-0.07684906
238	0xbce07fc2	-0.02740467
239	0x3da1bfa9	0.078978844
240	0x3cdd2025	0.026992867
241	0xbc815659	-0.015788244
242	0x3da0c365	0.078497685
243	0x3cb0ccea	0.021582086
244	0x3d9af048	0.07565361
245	0x3d8caf19	0.06869335
246	0x3ce32355	0.027726809
247	0xbcd07ec2	-0.025451068
248	0xbd26d03a	-0.040725924
249	0x3d4776d2	0.0486973
250	0x3d9ee571	0.07758606
251	0xbd571c14	-0.05251701
252	0x3e9d34fb	0.30704483
253	0x3e68e666	0.2274414
254	0x3e703c29	0.2346045
255	0x3e4eb587	0.20186435

features.3.bias f4 [32]
0	0xbde35998	-0.11101073
1	0xbcb29c5e	-0.021803077
2	0xbc1b494d	-0.0094779255
3	0x3dcc5c7b	0.09978577
4	0xbc3a5ad2	-0.011374192
5	0xbd474e5c	-0.048658714
6	0xbb0be177	-0.0021344104
7	0xbdb04038	-0.08605999
8	0xbdb92c27	-0.090416245
9	0x3d0e137a	0.034686543
10	0xbc57f78b	-0.013181577
11	0xbd0b0fd7	-0.033950653
12	0x3d7829a6	0.060586594
13	0x3cca56fc	0.02469968
14	0x3c1d1f2e	0.009589953
15	0x3cebfc1e	0.028806742
16	0x3d392268	0.045198828
17	0xbd653a09	-0.05596355
18	0x3e16ed9e	0.14739081
19	0x3d7d0217	0.06176957
20	0x3e136999	0.14395751
21	0xbd0cdc72	-0.03438992
22	0xbd5f0984	-0.054452434
23	0x3d0d3be9	0.034480963
24	0x3dcc7b45	0.09984449
25	0x3b94e1e0	0.004543528
26	0x3c35d9ab	0.011099259
27	0xbc81052a	-0.015749533
28	0x3cba4495	0.02273778
29	0x3daf871f	0.08570694
30	0xbd693b31	-0.056941215
31	0xbce757f7	-0.028240187

features.6.weight f4 [64, 32, 3, 3]
0	0xbca93284	-0.02065397
1	0xbdb89414	-0.09012619
2	0xbd60643d	-0.054783095
3	0xbdeb3ca5	-0.114861764
4	0xbe2aa554	-0.1666463
5	0xbda2fa2e	-0.07957874
6	0x3d8cc085	0.06872658
7	0x3d9cc292	0.07654299
8	0x3e0b8417	0.13624607
9	0x3c9defe8	0.019279435
10	0xbd4975d4	-0.049184635
11	0xbd5ab536	-0.053395472
12	0xbc4ec2c7	-0.012619681
13	0xbd79709e	-0.060898416
14	0xbc218eb8	-0.009860687
15	0xbc1b62d8	-0.009484015
16	0x3ce459b7	0.02787481
17	0xbcba52fa	-0.022744644
18	0xbd32fef2	-0.043700166
19	0x3cd2ec51	0.02574745
20	0xbcadbdae	-0.02120861
21	0xbd45ba33	-0.048273277
22	0x3cd26421	0.02568251
23	0x3ca8a04d	0.02058425
24	0x3cc98acf	0.024602322
25	0xbd8dcd60	-0.06923938
26	0xbd85594f	-0.06511175
27	0xbd6b6480	-0.05746889
28	0x3c2bea6d	0.010492903
29	0xbd42af3b	-0.047530394
30	0xbc2909f4	-0.010317314
31	0xbd3059ec	-0.043054506
32	0xbd2c8e62	-0.042127974
33	0xbd8f7a7b	-0.07005783
34	0x3b0cf96c	0.0021510972
35	0xbd68d7fd	-0.056846607
36	0xbcdce91b	-0.026966622
37	0xbd8d15b8	-0.06888908
38	0x3c572113	0.013130444
39	0xbd7555b3	-0.059896182
40	0xbbc02a54	-0.005864421
41	0xbd84a567	-0.064768605
42	0x3c982be3	0.018575614
43	0xbc3da79e	-0.011575608
44	0xbd5bb9c3	-0.053643953
45	0x3b2a810f	0.0026016866
46	0xbd2ad728	-0.041709095
47	0xbd03daca	-0.032191075
48	0xbbfeb345	-0.0077728354
49	0xbd9bfb27	-0.07616263
50	0xbbf5d157	-0.007501762
51	0xbc69a068	-0.014259435
52	0x3c9bc4b8	0.019014701
53	0xbcb09105	-0.021553526
54	0x3d5fa588	0.054601222
55	0xbc0f9813	-0.008764285
56	0x3b8e03db	0.0043339557
57	0x3cc82be3	0.02443499
58	0x3d05f9b3	0.032708835
59	0x3df93e1a	0.12170048
60	0x3c8fb51b	0.017542413
61	0x3cf8b10f	0.030357866
62	0x3e013b8c	0.12620372
63	0x3b96496b	0.004586389
64	0x3be51bd4	0.0069918428
65	0xbd25c59b	-0.040471654
66	0xbd52519f	-0.05134737
67	0x3d42c45f	0.047550555
68	0x3d5f6878	0.05454299
69	0x3c4d8811	0.012544648
70	0xbcb572cd	-0.022149468
71	0x3be95fa7	0.0071219984
72	0xbd2160a2	-0.039398797
73	0xbd2c4879	-0.042061303
74	0xbc637aaa	-0.013884226
75	0xbc876079	-0.016525494
76	0x3c26bbcc	0.01017661
77	0xbd10e6d6	-0.035376392
78	0xbd05d156	-0.03267034
79	0xb9be04f0	-0.00036243303
80	0x3d02a772	0.03189797
81	0xbc5b1763	-0.013372275
82	0xbd0d16bf	-0.03444552
83	0xbd9ec44c	-0.077522844
84	0xbd298678	-0.041388005
85	0xbc9fb12e	-0.019493666
86	0xbda55fd7	-0.080749206
87	0x3c4ea6e8	0.012613036
88	0x3c812c3f	0.015768168
89	0x3d2040f9	0.039124463
90	0x3cdb6b2c	0.026784502
91	0xbd5c2cd9	-0.053753708
92	0x3d19de9c	0.037565812
93	0xbd2e791a	-0.04259596
94	0xbd737a85	-0.059443016
95	0x3d0d37c6	0.034477018
96	0xbd113275	-0.03544851
97	0x3d23ad2a	0.039960064
98	0xbc5169ac	-0.012781542
99	0x3d0b6148	0.03402832
100	0x3d07d46b	0.033161562
101	0xbd3b011b	-0.04565535
102	0x3bda4ebf	0.0066622193
103	0xbb86fc4e	-0.0041194325
104	0xbd20dea5	-0.03927483
105	0xbd7189ac	-0.058969185
106	0x3cf3c214	0.02975563
107	0xbccee2e5	-0.025254676
108	0xbd754ae7	-0.059885886
109	0xbd5bc39b	-0.05365334
110	0xbcc59901	-0.02412081
111	0xbd8d4fa5	-0.068999566
112	0xbd867d6c	-0.06566891
113	0xbc954839	-0.018222915
114	0xbc4e7d31	-0.01260309
115	0x3cf8e3f5	0.030382136
116	0xbc78575d	-0.015157548
117	0x3dd5494e	0.104143724
118	0x3e20ece4	0.15715367
119	0x3e042212	0.12903622
120	0x3e141d8e	0.14464399
121	0x3e1297f7	0.14315782
122	0x3dbd8607	0.09254079
123	0x3de5988f	0.11210739
124	0x3dee73af	0.11643159
125	0x3dc9ffba	0.09863229
126	0xbd2b4e94	-0.041822985
127	0x3d135348	0.035968095
128	0xbd225b36	-0.039637767
129	0xbd004c92	-0.031323023
130	0xbd3cd3d7	-0.046100464
131	0xbc786c9e	-0.015162615
132	0xbc4dc34c	-0.012558769
133	0x3c3153e3	0.010823223
134	0x3d021edd	0.031767715
135	0xbc1dd654	-0.009633619
136	0xbcf6e391	-0.030137809
137	0xbd958261	-0.073002584
138	0xbd843f44	-0.064573795
139	0xbddf72a6	-0.10910539
140	0xbdbbb005	-0.091644324
141	0xbca850ea	-0.020546395
142	0xbd27bbfd	-0.040950764
143	0xbd036dda	-0.032087184
144	0xbcdd37f8	-0.027004227
145	0x3b8e42b0	0.004341446
146	0x3d017c4e	0.031612687
147	0xbd93e68d	-0.072217084
148	0xbd8ca590	-0.06867516
149	0xbb19b271	-0.0023452307
150	0x3a9d5241	0.0012002663
151	0xbc7ef183	-0.015560511
152	0x3c7e48c0	0.015520275
153	0x3d3884dc	0.04504858
154	0xbd37c42d	-0.044864822
155	0x3d1ebcf1	0.038754407
156	0x3cea1435	0.028574089
157	0x3ba08b24	0.0048993994
158	0x3c582576	0.013192525
159	0xbc3a96be	-0.011388479
160	0x3d3353aa	0.04378096
161	0x3d35652b	0.044285934
162	0x3caa7f11	0.020812543
163	0xbd833793	-0.06407084
164	0xbd90bd8a	-0.07067402
165	0xbd86e5d0	-0.06586802
166	0x3c11233b	0.008858497
167	0xbd58f0a8	-0.052963883
168	0xbdaba1b0	-0.08380449
169	0xbd623ab7	-0.055231776
170	0xbbb554fc	-0.0055338126
171	0x3bbe8a44	0.0058148224
172	0xbd5c6643	-0.053808462
173	0x3d04ccc2	0.032421835
174	0xbc002639	-0.007821613
175	0xbdd955b8	-0.10612053
176	0xbd44a2d1	-0.048006836
177	0xbdb60d83	-0.08889296
178	0xbcaef1a9	-0.021355467
179	0x3d0699d9	0.032861564
180	0xbbd6e214	-0.0065577123
181	0xbc0dac84	-0.008647088
182	0x3d2a2d74	0.041547254
183	0xbddc6585	-0.10761551
184	0xbd20e2f3	-0.039278936
185	0xbc24fccf	-0.01007004
186	0xbd78ae0a	-0.06071285
187	0xbcb056a5	-0.02152569
188	0xbd1a0007	-0.037597682
189	0xbd3fdef9	-0.046843503
190	0xbd00f3f1	-0.03148264
191	0xbce7a100	-0.028275013
192	0xbc3050c5	-0.010761444
193	0xbcde50a5	-0.027138064
194	0xbd2ea3ec	-0.042636797
195	0xbd902c31	-0.07039679
196	0x3b9d0b06	0.004792574
197	0xbd45249d	-0.04813062
198	0x3d329005	0.04359438
199	0x3d230132	0.03979606
200	0xba194ad1	-0.00058476353
201	0xbbd9f773	-0.0066518127
202	0x3d5f13fe	0.054462425
203	0x3d0399aa	0.032128967
204	0x3d4f567b	0.050619584
205	0xbbb7995c	-0.0056029987
206	0x3d569938	0.052392215
207	0xbd8db967	-0.06920128
208	0x3cb90e12	0.022589717
209	0xbcdebf15	-0.027190724
210	0xbcf18fb5	-0.02948747
211	0xbd959278	-0.07303327
212	0x3c447261	0.011990161
213	0xbcc215c7	-0.023692025
214	0xbd7544d5	-0.059880096
215	0xbce9febb	-0.028563848
216	0x3d3a833f	0.045535322
217	0x3ce2c249	0.027680533
218	0xbd31430f	-0.043276843
219	0xbc9b32f0	-0.018945187
220	0x3c973bfb	0.018461218
221	0x3ca32382	0.019914392
222	0x3d876d6f	0.0661267
223	0x3d36a654	0.044592217
224	0x3d8fe322	0.07025744
225	0x3d8c197d	0.06840799
226	0x3b02ced9	0.0019959717
227	0x3d96d326	0.07364492
228	0x3d4052e3	0.046954047
229	0x3d950311	0.072759755
230	0x3cf48f3f	0.029853461
231	0x3c8eaaad	0.017415369
232	0x3cf1fa4f	0.029538302
233	0xbc37dc32	-0.011221932
234	0x3d0a21b9	0.033723567
235	0xbd2c1f52	-0.042022057
236	0x3be02dfb	0.006841419
237	0x3ccc8e2d	0.024970138
238	0xbcfa3fdd	-0.03054803
239	0xba85fb35	-0.001022196
240	0xbd08779a	-0.033317186
241	0xbda9a494	-0.08283344
242	0xbc1f0d80	-0.0097078085
243	0x3c0e38f0	0.008680567
244	0x3d0853b3	0.033282947
245	0xbd8324bf	-0.06403493
246	0xbd88b536	-0.06675188
247	0xbbda988b	-0.0066710166
248	0xbda077ba	-0.07835336
249	0xbd2aa337	-0.04165956
250	0xbd65a12a	-0.0560619
251	0xbb766eea	-0.003760273
252	0x3ccbea9d	0.024892146
253	0xbd0637cb	-0.032768052
254	0xbc68e222	-0.0142140705
255	0xbd7fef7c	-0.06248425

features.6.bias f4 [64]
0	0xbcc336b7	-0.023829801
1	0x3df4d204	0.1195412
2	0x3dc6e119	0.09710903
3	0x3aa969c7	0.0012925201
4	0x3d7806e5	0.06055345
5	0x3cd5ebba	0.02611338
6	0xbd2fd93d	-0.042931784
7	0x3e4cfeb5	0.20019038
8	0x3d3a1eed	0.04543965
9	0x3d1b9255	0.03798135
10	0x3e3271b4	0.17426187
11	0xbbf9d075	-0.007623727
12	0x3d15136e	0.036395483
13	0x3d49619d	0.049165357
14	0x3d2d1d7f	0.042264458
15	0x3dd6531b	0.1046507
16	0x3e04e353	0.12977342
17	0xba8acb00	-0.0010589063
18	0x3cca5168	0.02469702
19	0x3c4bc296	0.01243653
20	0x3d6a25ad	0.057164837
21	0xbbf41bb9	-0.007449594
22	0x3d36719f	0.04454195
23	0xbd0e4078	-0.03472945
24	0x3b831b10	0.004001029
25	0x3cf5f96d	0.030026162
26	0x3d60c81c	0.05487834
27	0xbd653f84	-0.055968776
28	0xbcba4657	-0.022738619
29	0x3e0319c2	0.12802795
30	0x3c999b89	0.018750923
31	0xbc7f3f75	-0.015579094
32	0x3e7d4d51	0.24736525
33	0x3e5794c0	0.21052837
34	0x3e87a946	0.26496333
35	0x3e251251	0.16120268
36	0x3c75c20a	0.014999876
37	0xbd060485	-0.032719154
38	0x3e8171c3	0.25282106
39	0x3e225957	0.15854393
40	0x3d30d075	0.04316755
41	0xbc269239	-0.010166698
42	0x3dd105a4	0.10206154
43	0x3dc4c1b2	0.09607257
44	0x3d63ade0	0.055585742
45	0x3c8ecee9	0.017432647
46	0x3e2a1b6f	0.16612028
47	0x3cf06ba7	0.029348208
48	0x3cf2f159	0.0296561
49	0xbd9a0305	-0.07520107
50	0x3d840797	0.0644676
51	0x3db99c02	0.09062959
52	0x3da5d718	0.080976665
53	0x3dcc1615	0.09965149
54	0xbd971fef	-0.07379138
55	0x3dd59640	0.104290485
56	0xbc780796	-0.015138527
57	0x3c9183a9	0.017762976
58	0x3c1a5688	0.009420045
59	0x3e2712a4	0.16315705
60	0xbd267e82	-0.04064799
61	0xbd9988fb	-0.0749683
62	0x3dd9956d	0.10624204
63	0xbc0911a7	-0.008366025

classifier.weight f4 [1, 64]
0	0x3e71a55e	0.23598239
1	0xbea205ac	-0.31644952
2	0xbeb7c32f	-0.358911
3	0xbf28657a	-0.6577984
4	0xbe9129b0	-0.28352118
5	0x3e89cebb	0.26915535
6	0xbee821e4	-0.45338356
7	0xbed047a5	-0.4067966
8	0x3e6f229c	0.23353046
9	0x3e894b67	0.2681534
10	0xbeacfe70	-0.3378787
11	0x3e47f5e6	0.19527397
12	0x3e731ff1	0.23742653
13	0x3e4871b3	0.19574623
14	0x3e402694	0.18764716
15	0xbedabdd2	-0.42722946
16	0xbececb53	-0.403895
17	0xbe7fc75e	-0.24978396
18	0xbebd2217	-0.3694007
19	0x3e7ac771	0.24490143
20	0xbeb8bb42	-0.36080366
21	0x3e3b32ad	0.1828105
22	0x3e362b02	0.17789844
23	0xbe973034	-0.29528964
24	0x3e37501a	0.1790165
25	0x3e44d93a	0.1922349
26	0x3e588657	0.21144997
27	0x3e43f861	0.19137718
28	0x3e5ac7cd	0.2136528
29	0xbecaa76c	-0.39580858
30	0x3e33ebae	0.17570373
31	0xbec46c0d	-0.38363686
32	0xbf02faf7	-0.5116419
33	0xbee283a8	-0.4424107
34	0xbeee9b5b	-0.46602902
35	0xbed87e11	-0.4228368
36	0x3edc8c13	0.43075618
37	0x3e3038a8	0.17209113
38	0xbf0a97e3	-0.5413801
39	0xbeb9ef73	-0.36315498
40	0x3e6444b4	0.22291833
41	0x3e475be0	0.19468641
42	0xbee1307f	-0.43982312
43	0xbec63daf	-0.38718936
44	0xbe80f738	-0.25188613
45	0x3e61af88	0.22039616
46	0xbeedd9da	-0.4645527
47	0x3e3ffed0	0.18749547
48	0x3e3b23fc	0.18275446
49	0x3c0faf70	0.008769855
50	0xbecad070	-0.3961215
51	0xbeb80952	-0.3594461
52	0xbedbbc00	-0.4291687
53	0xbeb56c9e	-0.3543443
54	0xbf2507c1	-0.64464957
55	0xbee726af	-0.451467
56	0x3e7b57ef	0.24545263
57	0x3e56e112	0.20984295
58	0x3e2c0f4e	0.16802713
59	0xbef0b537	-0.47013256
60	0xbf37f930	-0.71864605
61	0xbdcdebb4	-0.100547224
62	0xbed51055	-0.41614023
63	0x3e450804	0.19241339
